<?xml version="1.0" ?>
<net name="torch-jit-export" version="11">
	<layers>
		<layer id="0" name="image" type="Parameter" version="opset1">
			<data shape="1,3,720,1280" element_type="f32"/>
			<rt_info>
				<attribute name="fused_names" version="0" value="image"/>
			</rt_info>
			<output>
				<port id="0" precision="FP32" names="image">
					<dim>1</dim>
					<dim>3</dim>
					<dim>720</dim>
					<dim>1280</dim>
					<rt_info>
						<attribute name="layout" version="0" layout="[N,C,H,W]"/>
					</rt_info>
				</port>
			</output>
		</layer>
		<layer id="1" name="1252" type="Const" version="opset1">
			<data element_type="f32" shape="1, 1, 4" offset="0" size="16"/>
			<rt_info>
				<attribute name="fused_names" version="0" value="1252"/>
			</rt_info>
			<output>
				<port id="0" precision="FP32" names="1252">
					<dim>1</dim>
					<dim>1</dim>
					<dim>4</dim>
				</port>
			</output>
		</layer>
		<layer id="2" name="3032" type="Const" version="opset1">
			<data element_type="i64" shape="" offset="16" size="8"/>
			<rt_info>
				<attribute name="fused_names" version="0" value="3032"/>
			</rt_info>
			<output>
				<port id="0" precision="I64" names="3032"/>
			</output>
		</layer>
		<layer id="3" name="Constant_47736" type="Const" version="opset1">
			<data element_type="f32" shape="1, 1, 1, 1" offset="24" size="4"/>
			<output>
				<port id="0" precision="FP32">
					<dim>1</dim>
					<dim>1</dim>
					<dim>1</dim>
					<dim>1</dim>
				</port>
			</output>
		</layer>
		<layer id="4" name="Divide_14680" type="Multiply" version="opset1">
			<data auto_broadcast="numpy"/>
			<rt_info>
				<attribute name="fused_names" version="0" value="Constant_14679, Divide_14680"/>
				<attribute name="preprocessing" version="0"/>
			</rt_info>
			<input>
				<port id="0" precision="FP32">
					<dim>1</dim>
					<dim>3</dim>
					<dim>720</dim>
					<dim>1280</dim>
				</port>
				<port id="1" precision="FP32">
					<dim>1</dim>
					<dim>1</dim>
					<dim>1</dim>
					<dim>1</dim>
				</port>
			</input>
			<output>
				<port id="2" precision="FP32">
					<dim>1</dim>
					<dim>3</dim>
					<dim>720</dim>
					<dim>1280</dim>
				</port>
			</output>
		</layer>
		<layer id="5" name="Gather_47735" type="Const" version="opset1">
			<data element_type="f32" shape="32, 3, 3, 3" offset="28" size="3456"/>
			<output>
				<port id="0" precision="FP32">
					<dim>32</dim>
					<dim>3</dim>
					<dim>3</dim>
					<dim>3</dim>
				</port>
			</output>
		</layer>
		<layer id="6" name="Convolution_869" type="Convolution" version="opset1">
			<data strides="2, 2" dilations="1, 1" pads_begin="1, 1" pads_end="1, 1" auto_pad="explicit"/>
			<rt_info>
				<attribute name="fused_names" version="0" value="Convolution_869"/>
			</rt_info>
			<input>
				<port id="0" precision="FP32">
					<dim>1</dim>
					<dim>3</dim>
					<dim>720</dim>
					<dim>1280</dim>
				</port>
				<port id="1" precision="FP32">
					<dim>32</dim>
					<dim>3</dim>
					<dim>3</dim>
					<dim>3</dim>
				</port>
			</input>
			<output>
				<port id="2" precision="FP32">
					<dim>1</dim>
					<dim>32</dim>
					<dim>360</dim>
					<dim>640</dim>
				</port>
			</output>
		</layer>
		<layer id="7" name="Reshape_889" type="Const" version="opset1">
			<data element_type="f32" shape="1, 32, 1, 1" offset="3484" size="128"/>
			<output>
				<port id="0" precision="FP32">
					<dim>1</dim>
					<dim>32</dim>
					<dim>1</dim>
					<dim>1</dim>
				</port>
			</output>
		</layer>
		<layer id="8" name="2796" type="Add" version="opset1">
			<data auto_broadcast="numpy"/>
			<rt_info>
				<attribute name="fused_names" version="0" value="2796, Concat_888, Reshape_889"/>
			</rt_info>
			<input>
				<port id="0" precision="FP32">
					<dim>1</dim>
					<dim>32</dim>
					<dim>360</dim>
					<dim>640</dim>
				</port>
				<port id="1" precision="FP32">
					<dim>1</dim>
					<dim>32</dim>
					<dim>1</dim>
					<dim>1</dim>
				</port>
			</input>
			<output>
				<port id="2" precision="FP32" names="2796">
					<dim>1</dim>
					<dim>32</dim>
					<dim>360</dim>
					<dim>640</dim>
				</port>
			</output>
		</layer>
		<layer id="9" name="374" type="Clamp" version="opset1">
			<data min="0" max="6"/>
			<rt_info>
				<attribute name="fused_names" version="0" value="374, Maximum_917"/>
			</rt_info>
			<input>
				<port id="0" precision="FP32">
					<dim>1</dim>
					<dim>32</dim>
					<dim>360</dim>
					<dim>640</dim>
				</port>
			</input>
			<output>
				<port id="1" precision="FP32" names="374">
					<dim>1</dim>
					<dim>32</dim>
					<dim>360</dim>
					<dim>640</dim>
				</port>
			</output>
		</layer>
		<layer id="10" name="2800" type="Const" version="opset1">
			<data element_type="f32" shape="32, 32, 1, 1" offset="3612" size="4096"/>
			<rt_info>
				<attribute name="fused_names" version="0" value="2800"/>
			</rt_info>
			<output>
				<port id="0" precision="FP32" names="2800">
					<dim>32</dim>
					<dim>32</dim>
					<dim>1</dim>
					<dim>1</dim>
				</port>
			</output>
		</layer>
		<layer id="11" name="Convolution_919" type="Convolution" version="opset1">
			<data strides="1, 1" dilations="1, 1" pads_begin="0, 0" pads_end="0, 0" auto_pad="explicit"/>
			<rt_info>
				<attribute name="fused_names" version="0" value="Convolution_919"/>
			</rt_info>
			<input>
				<port id="0" precision="FP32">
					<dim>1</dim>
					<dim>32</dim>
					<dim>360</dim>
					<dim>640</dim>
				</port>
				<port id="1" precision="FP32">
					<dim>32</dim>
					<dim>32</dim>
					<dim>1</dim>
					<dim>1</dim>
				</port>
			</input>
			<output>
				<port id="2" precision="FP32">
					<dim>1</dim>
					<dim>32</dim>
					<dim>360</dim>
					<dim>640</dim>
				</port>
			</output>
		</layer>
		<layer id="12" name="Reshape_939" type="Const" version="opset1">
			<data element_type="f32" shape="1, 32, 1, 1" offset="7708" size="128"/>
			<output>
				<port id="0" precision="FP32">
					<dim>1</dim>
					<dim>32</dim>
					<dim>1</dim>
					<dim>1</dim>
				</port>
			</output>
		</layer>
		<layer id="13" name="2799" type="Add" version="opset1">
			<data auto_broadcast="numpy"/>
			<rt_info>
				<attribute name="fused_names" version="0" value="2799, Concat_938, Reshape_939"/>
			</rt_info>
			<input>
				<port id="0" precision="FP32">
					<dim>1</dim>
					<dim>32</dim>
					<dim>360</dim>
					<dim>640</dim>
				</port>
				<port id="1" precision="FP32">
					<dim>1</dim>
					<dim>32</dim>
					<dim>1</dim>
					<dim>1</dim>
				</port>
			</input>
			<output>
				<port id="2" precision="FP32" names="2799">
					<dim>1</dim>
					<dim>32</dim>
					<dim>360</dim>
					<dim>640</dim>
				</port>
			</output>
		</layer>
		<layer id="14" name="379" type="Clamp" version="opset1">
			<data min="0" max="6"/>
			<rt_info>
				<attribute name="fused_names" version="0" value="379, Maximum_967"/>
			</rt_info>
			<input>
				<port id="0" precision="FP32">
					<dim>1</dim>
					<dim>32</dim>
					<dim>360</dim>
					<dim>640</dim>
				</port>
			</input>
			<output>
				<port id="1" precision="FP32" names="379">
					<dim>1</dim>
					<dim>32</dim>
					<dim>360</dim>
					<dim>640</dim>
				</port>
			</output>
		</layer>
		<layer id="15" name="Reshape_976" type="Const" version="opset1">
			<data element_type="f32" shape="32, 1, 1, 3, 3" offset="7836" size="1152"/>
			<output>
				<port id="0" precision="FP32">
					<dim>32</dim>
					<dim>1</dim>
					<dim>1</dim>
					<dim>3</dim>
					<dim>3</dim>
				</port>
			</output>
		</layer>
		<layer id="16" name="GroupConvolution_1042" type="GroupConvolution" version="opset1">
			<data strides="1, 1" pads_begin="1, 1" pads_end="1, 1" dilations="1, 1" auto_pad="explicit"/>
			<rt_info>
				<attribute name="fused_names" version="0" value="GroupConvolution_1042, Reshape_976"/>
			</rt_info>
			<input>
				<port id="0" precision="FP32">
					<dim>1</dim>
					<dim>32</dim>
					<dim>360</dim>
					<dim>640</dim>
				</port>
				<port id="1" precision="FP32">
					<dim>32</dim>
					<dim>1</dim>
					<dim>1</dim>
					<dim>3</dim>
					<dim>3</dim>
				</port>
			</input>
			<output>
				<port id="2" precision="FP32">
					<dim>1</dim>
					<dim>32</dim>
					<dim>360</dim>
					<dim>640</dim>
				</port>
			</output>
		</layer>
		<layer id="17" name="Reshape_1062" type="Const" version="opset1">
			<data element_type="f32" shape="1, 32, 1, 1" offset="8988" size="128"/>
			<output>
				<port id="0" precision="FP32">
					<dim>1</dim>
					<dim>32</dim>
					<dim>1</dim>
					<dim>1</dim>
				</port>
			</output>
		</layer>
		<layer id="18" name="2802" type="Add" version="opset1">
			<data auto_broadcast="numpy"/>
			<rt_info>
				<attribute name="fused_names" version="0" value="2802, Concat_1061, Reshape_1062"/>
			</rt_info>
			<input>
				<port id="0" precision="FP32">
					<dim>1</dim>
					<dim>32</dim>
					<dim>360</dim>
					<dim>640</dim>
				</port>
				<port id="1" precision="FP32">
					<dim>1</dim>
					<dim>32</dim>
					<dim>1</dim>
					<dim>1</dim>
				</port>
			</input>
			<output>
				<port id="2" precision="FP32" names="2802">
					<dim>1</dim>
					<dim>32</dim>
					<dim>360</dim>
					<dim>640</dim>
				</port>
			</output>
		</layer>
		<layer id="19" name="384" type="Clamp" version="opset1">
			<data min="0" max="6"/>
			<rt_info>
				<attribute name="fused_names" version="0" value="384, Maximum_1090"/>
			</rt_info>
			<input>
				<port id="0" precision="FP32">
					<dim>1</dim>
					<dim>32</dim>
					<dim>360</dim>
					<dim>640</dim>
				</port>
			</input>
			<output>
				<port id="1" precision="FP32" names="384">
					<dim>1</dim>
					<dim>32</dim>
					<dim>360</dim>
					<dim>640</dim>
				</port>
			</output>
		</layer>
		<layer id="20" name="2806" type="Const" version="opset1">
			<data element_type="f32" shape="16, 32, 1, 1" offset="9116" size="2048"/>
			<rt_info>
				<attribute name="fused_names" version="0" value="2806"/>
			</rt_info>
			<output>
				<port id="0" precision="FP32" names="2806">
					<dim>16</dim>
					<dim>32</dim>
					<dim>1</dim>
					<dim>1</dim>
				</port>
			</output>
		</layer>
		<layer id="21" name="Convolution_1092" type="Convolution" version="opset1">
			<data strides="1, 1" dilations="1, 1" pads_begin="0, 0" pads_end="0, 0" auto_pad="explicit"/>
			<rt_info>
				<attribute name="fused_names" version="0" value="Convolution_1092"/>
			</rt_info>
			<input>
				<port id="0" precision="FP32">
					<dim>1</dim>
					<dim>32</dim>
					<dim>360</dim>
					<dim>640</dim>
				</port>
				<port id="1" precision="FP32">
					<dim>16</dim>
					<dim>32</dim>
					<dim>1</dim>
					<dim>1</dim>
				</port>
			</input>
			<output>
				<port id="2" precision="FP32">
					<dim>1</dim>
					<dim>16</dim>
					<dim>360</dim>
					<dim>640</dim>
				</port>
			</output>
		</layer>
		<layer id="22" name="Reshape_1112" type="Const" version="opset1">
			<data element_type="f32" shape="1, 16, 1, 1" offset="11164" size="64"/>
			<output>
				<port id="0" precision="FP32">
					<dim>1</dim>
					<dim>16</dim>
					<dim>1</dim>
					<dim>1</dim>
				</port>
			</output>
		</layer>
		<layer id="23" name="2805" type="Add" version="opset1">
			<data auto_broadcast="numpy"/>
			<rt_info>
				<attribute name="fused_names" version="0" value="2805, Concat_1111, Reshape_1112"/>
			</rt_info>
			<input>
				<port id="0" precision="FP32">
					<dim>1</dim>
					<dim>16</dim>
					<dim>360</dim>
					<dim>640</dim>
				</port>
				<port id="1" precision="FP32">
					<dim>1</dim>
					<dim>16</dim>
					<dim>1</dim>
					<dim>1</dim>
				</port>
			</input>
			<output>
				<port id="2" precision="FP32" names="2805">
					<dim>1</dim>
					<dim>16</dim>
					<dim>360</dim>
					<dim>640</dim>
				</port>
			</output>
		</layer>
		<layer id="24" name="2809" type="Const" version="opset1">
			<data element_type="f32" shape="96, 16, 1, 1" offset="11228" size="6144"/>
			<rt_info>
				<attribute name="fused_names" version="0" value="2809"/>
			</rt_info>
			<output>
				<port id="0" precision="FP32" names="2809">
					<dim>96</dim>
					<dim>16</dim>
					<dim>1</dim>
					<dim>1</dim>
				</port>
			</output>
		</layer>
		<layer id="25" name="Convolution_1140" type="Convolution" version="opset1">
			<data strides="1, 1" dilations="1, 1" pads_begin="0, 0" pads_end="0, 0" auto_pad="explicit"/>
			<rt_info>
				<attribute name="fused_names" version="0" value="Convolution_1140"/>
			</rt_info>
			<input>
				<port id="0" precision="FP32">
					<dim>1</dim>
					<dim>16</dim>
					<dim>360</dim>
					<dim>640</dim>
				</port>
				<port id="1" precision="FP32">
					<dim>96</dim>
					<dim>16</dim>
					<dim>1</dim>
					<dim>1</dim>
				</port>
			</input>
			<output>
				<port id="2" precision="FP32">
					<dim>1</dim>
					<dim>96</dim>
					<dim>360</dim>
					<dim>640</dim>
				</port>
			</output>
		</layer>
		<layer id="26" name="Reshape_1160" type="Const" version="opset1">
			<data element_type="f32" shape="1, 96, 1, 1" offset="17372" size="384"/>
			<output>
				<port id="0" precision="FP32">
					<dim>1</dim>
					<dim>96</dim>
					<dim>1</dim>
					<dim>1</dim>
				</port>
			</output>
		</layer>
		<layer id="27" name="2808" type="Add" version="opset1">
			<data auto_broadcast="numpy"/>
			<rt_info>
				<attribute name="fused_names" version="0" value="2808, Concat_1159, Reshape_1160"/>
			</rt_info>
			<input>
				<port id="0" precision="FP32">
					<dim>1</dim>
					<dim>96</dim>
					<dim>360</dim>
					<dim>640</dim>
				</port>
				<port id="1" precision="FP32">
					<dim>1</dim>
					<dim>96</dim>
					<dim>1</dim>
					<dim>1</dim>
				</port>
			</input>
			<output>
				<port id="2" precision="FP32" names="2808">
					<dim>1</dim>
					<dim>96</dim>
					<dim>360</dim>
					<dim>640</dim>
				</port>
			</output>
		</layer>
		<layer id="28" name="391" type="Clamp" version="opset1">
			<data min="0" max="6"/>
			<rt_info>
				<attribute name="fused_names" version="0" value="391, Maximum_1188"/>
			</rt_info>
			<input>
				<port id="0" precision="FP32">
					<dim>1</dim>
					<dim>96</dim>
					<dim>360</dim>
					<dim>640</dim>
				</port>
			</input>
			<output>
				<port id="1" precision="FP32" names="391">
					<dim>1</dim>
					<dim>96</dim>
					<dim>360</dim>
					<dim>640</dim>
				</port>
			</output>
		</layer>
		<layer id="29" name="Reshape_1197" type="Const" version="opset1">
			<data element_type="f32" shape="96, 1, 1, 3, 3" offset="17756" size="3456"/>
			<output>
				<port id="0" precision="FP32">
					<dim>96</dim>
					<dim>1</dim>
					<dim>1</dim>
					<dim>3</dim>
					<dim>3</dim>
				</port>
			</output>
		</layer>
		<layer id="30" name="GroupConvolution_1263" type="GroupConvolution" version="opset1">
			<data strides="2, 2" pads_begin="1, 1" pads_end="1, 1" dilations="1, 1" auto_pad="explicit"/>
			<rt_info>
				<attribute name="fused_names" version="0" value="GroupConvolution_1263, Reshape_1197"/>
			</rt_info>
			<input>
				<port id="0" precision="FP32">
					<dim>1</dim>
					<dim>96</dim>
					<dim>360</dim>
					<dim>640</dim>
				</port>
				<port id="1" precision="FP32">
					<dim>96</dim>
					<dim>1</dim>
					<dim>1</dim>
					<dim>3</dim>
					<dim>3</dim>
				</port>
			</input>
			<output>
				<port id="2" precision="FP32">
					<dim>1</dim>
					<dim>96</dim>
					<dim>180</dim>
					<dim>320</dim>
				</port>
			</output>
		</layer>
		<layer id="31" name="Reshape_1283" type="Const" version="opset1">
			<data element_type="f32" shape="1, 96, 1, 1" offset="21212" size="384"/>
			<output>
				<port id="0" precision="FP32">
					<dim>1</dim>
					<dim>96</dim>
					<dim>1</dim>
					<dim>1</dim>
				</port>
			</output>
		</layer>
		<layer id="32" name="2811" type="Add" version="opset1">
			<data auto_broadcast="numpy"/>
			<rt_info>
				<attribute name="fused_names" version="0" value="2811, Concat_1282, Reshape_1283"/>
			</rt_info>
			<input>
				<port id="0" precision="FP32">
					<dim>1</dim>
					<dim>96</dim>
					<dim>180</dim>
					<dim>320</dim>
				</port>
				<port id="1" precision="FP32">
					<dim>1</dim>
					<dim>96</dim>
					<dim>1</dim>
					<dim>1</dim>
				</port>
			</input>
			<output>
				<port id="2" precision="FP32" names="2811">
					<dim>1</dim>
					<dim>96</dim>
					<dim>180</dim>
					<dim>320</dim>
				</port>
			</output>
		</layer>
		<layer id="33" name="396" type="Clamp" version="opset1">
			<data min="0" max="6"/>
			<rt_info>
				<attribute name="fused_names" version="0" value="396, Maximum_1311"/>
			</rt_info>
			<input>
				<port id="0" precision="FP32">
					<dim>1</dim>
					<dim>96</dim>
					<dim>180</dim>
					<dim>320</dim>
				</port>
			</input>
			<output>
				<port id="1" precision="FP32" names="396">
					<dim>1</dim>
					<dim>96</dim>
					<dim>180</dim>
					<dim>320</dim>
				</port>
			</output>
		</layer>
		<layer id="34" name="2815" type="Const" version="opset1">
			<data element_type="f32" shape="24, 96, 1, 1" offset="21596" size="9216"/>
			<rt_info>
				<attribute name="fused_names" version="0" value="2815"/>
			</rt_info>
			<output>
				<port id="0" precision="FP32" names="2815">
					<dim>24</dim>
					<dim>96</dim>
					<dim>1</dim>
					<dim>1</dim>
				</port>
			</output>
		</layer>
		<layer id="35" name="Convolution_1313" type="Convolution" version="opset1">
			<data strides="1, 1" dilations="1, 1" pads_begin="0, 0" pads_end="0, 0" auto_pad="explicit"/>
			<rt_info>
				<attribute name="fused_names" version="0" value="Convolution_1313"/>
			</rt_info>
			<input>
				<port id="0" precision="FP32">
					<dim>1</dim>
					<dim>96</dim>
					<dim>180</dim>
					<dim>320</dim>
				</port>
				<port id="1" precision="FP32">
					<dim>24</dim>
					<dim>96</dim>
					<dim>1</dim>
					<dim>1</dim>
				</port>
			</input>
			<output>
				<port id="2" precision="FP32">
					<dim>1</dim>
					<dim>24</dim>
					<dim>180</dim>
					<dim>320</dim>
				</port>
			</output>
		</layer>
		<layer id="36" name="Reshape_1333" type="Const" version="opset1">
			<data element_type="f32" shape="1, 24, 1, 1" offset="30812" size="96"/>
			<output>
				<port id="0" precision="FP32">
					<dim>1</dim>
					<dim>24</dim>
					<dim>1</dim>
					<dim>1</dim>
				</port>
			</output>
		</layer>
		<layer id="37" name="2814" type="Add" version="opset1">
			<data auto_broadcast="numpy"/>
			<rt_info>
				<attribute name="fused_names" version="0" value="2814, Concat_1332, Reshape_1333"/>
			</rt_info>
			<input>
				<port id="0" precision="FP32">
					<dim>1</dim>
					<dim>24</dim>
					<dim>180</dim>
					<dim>320</dim>
				</port>
				<port id="1" precision="FP32">
					<dim>1</dim>
					<dim>24</dim>
					<dim>1</dim>
					<dim>1</dim>
				</port>
			</input>
			<output>
				<port id="2" precision="FP32" names="2814">
					<dim>1</dim>
					<dim>24</dim>
					<dim>180</dim>
					<dim>320</dim>
				</port>
			</output>
		</layer>
		<layer id="38" name="2818" type="Const" version="opset1">
			<data element_type="f32" shape="144, 24, 1, 1" offset="30908" size="13824"/>
			<rt_info>
				<attribute name="fused_names" version="0" value="2818"/>
			</rt_info>
			<output>
				<port id="0" precision="FP32" names="2818">
					<dim>144</dim>
					<dim>24</dim>
					<dim>1</dim>
					<dim>1</dim>
				</port>
			</output>
		</layer>
		<layer id="39" name="Convolution_1361" type="Convolution" version="opset1">
			<data strides="1, 1" dilations="1, 1" pads_begin="0, 0" pads_end="0, 0" auto_pad="explicit"/>
			<rt_info>
				<attribute name="fused_names" version="0" value="Convolution_1361"/>
			</rt_info>
			<input>
				<port id="0" precision="FP32">
					<dim>1</dim>
					<dim>24</dim>
					<dim>180</dim>
					<dim>320</dim>
				</port>
				<port id="1" precision="FP32">
					<dim>144</dim>
					<dim>24</dim>
					<dim>1</dim>
					<dim>1</dim>
				</port>
			</input>
			<output>
				<port id="2" precision="FP32">
					<dim>1</dim>
					<dim>144</dim>
					<dim>180</dim>
					<dim>320</dim>
				</port>
			</output>
		</layer>
		<layer id="40" name="Reshape_1381" type="Const" version="opset1">
			<data element_type="f32" shape="1, 144, 1, 1" offset="44732" size="576"/>
			<output>
				<port id="0" precision="FP32">
					<dim>1</dim>
					<dim>144</dim>
					<dim>1</dim>
					<dim>1</dim>
				</port>
			</output>
		</layer>
		<layer id="41" name="2817" type="Add" version="opset1">
			<data auto_broadcast="numpy"/>
			<rt_info>
				<attribute name="fused_names" version="0" value="2817, Concat_1380, Reshape_1381"/>
			</rt_info>
			<input>
				<port id="0" precision="FP32">
					<dim>1</dim>
					<dim>144</dim>
					<dim>180</dim>
					<dim>320</dim>
				</port>
				<port id="1" precision="FP32">
					<dim>1</dim>
					<dim>144</dim>
					<dim>1</dim>
					<dim>1</dim>
				</port>
			</input>
			<output>
				<port id="2" precision="FP32" names="2817">
					<dim>1</dim>
					<dim>144</dim>
					<dim>180</dim>
					<dim>320</dim>
				</port>
			</output>
		</layer>
		<layer id="42" name="403" type="Clamp" version="opset1">
			<data min="0" max="6"/>
			<rt_info>
				<attribute name="fused_names" version="0" value="403, Maximum_1409"/>
			</rt_info>
			<input>
				<port id="0" precision="FP32">
					<dim>1</dim>
					<dim>144</dim>
					<dim>180</dim>
					<dim>320</dim>
				</port>
			</input>
			<output>
				<port id="1" precision="FP32" names="403">
					<dim>1</dim>
					<dim>144</dim>
					<dim>180</dim>
					<dim>320</dim>
				</port>
			</output>
		</layer>
		<layer id="43" name="Reshape_1418" type="Const" version="opset1">
			<data element_type="f32" shape="144, 1, 1, 3, 3" offset="45308" size="5184"/>
			<output>
				<port id="0" precision="FP32">
					<dim>144</dim>
					<dim>1</dim>
					<dim>1</dim>
					<dim>3</dim>
					<dim>3</dim>
				</port>
			</output>
		</layer>
		<layer id="44" name="GroupConvolution_1484" type="GroupConvolution" version="opset1">
			<data strides="1, 1" pads_begin="1, 1" pads_end="1, 1" dilations="1, 1" auto_pad="explicit"/>
			<rt_info>
				<attribute name="fused_names" version="0" value="GroupConvolution_1484, Reshape_1418"/>
			</rt_info>
			<input>
				<port id="0" precision="FP32">
					<dim>1</dim>
					<dim>144</dim>
					<dim>180</dim>
					<dim>320</dim>
				</port>
				<port id="1" precision="FP32">
					<dim>144</dim>
					<dim>1</dim>
					<dim>1</dim>
					<dim>3</dim>
					<dim>3</dim>
				</port>
			</input>
			<output>
				<port id="2" precision="FP32">
					<dim>1</dim>
					<dim>144</dim>
					<dim>180</dim>
					<dim>320</dim>
				</port>
			</output>
		</layer>
		<layer id="45" name="Reshape_1504" type="Const" version="opset1">
			<data element_type="f32" shape="1, 144, 1, 1" offset="50492" size="576"/>
			<output>
				<port id="0" precision="FP32">
					<dim>1</dim>
					<dim>144</dim>
					<dim>1</dim>
					<dim>1</dim>
				</port>
			</output>
		</layer>
		<layer id="46" name="2820" type="Add" version="opset1">
			<data auto_broadcast="numpy"/>
			<rt_info>
				<attribute name="fused_names" version="0" value="2820, Concat_1503, Reshape_1504"/>
			</rt_info>
			<input>
				<port id="0" precision="FP32">
					<dim>1</dim>
					<dim>144</dim>
					<dim>180</dim>
					<dim>320</dim>
				</port>
				<port id="1" precision="FP32">
					<dim>1</dim>
					<dim>144</dim>
					<dim>1</dim>
					<dim>1</dim>
				</port>
			</input>
			<output>
				<port id="2" precision="FP32" names="2820">
					<dim>1</dim>
					<dim>144</dim>
					<dim>180</dim>
					<dim>320</dim>
				</port>
			</output>
		</layer>
		<layer id="47" name="408" type="Clamp" version="opset1">
			<data min="0" max="6"/>
			<rt_info>
				<attribute name="fused_names" version="0" value="408, Maximum_1532"/>
			</rt_info>
			<input>
				<port id="0" precision="FP32">
					<dim>1</dim>
					<dim>144</dim>
					<dim>180</dim>
					<dim>320</dim>
				</port>
			</input>
			<output>
				<port id="1" precision="FP32" names="408">
					<dim>1</dim>
					<dim>144</dim>
					<dim>180</dim>
					<dim>320</dim>
				</port>
			</output>
		</layer>
		<layer id="48" name="2824" type="Const" version="opset1">
			<data element_type="f32" shape="24, 144, 1, 1" offset="51068" size="13824"/>
			<rt_info>
				<attribute name="fused_names" version="0" value="2824"/>
			</rt_info>
			<output>
				<port id="0" precision="FP32" names="2824">
					<dim>24</dim>
					<dim>144</dim>
					<dim>1</dim>
					<dim>1</dim>
				</port>
			</output>
		</layer>
		<layer id="49" name="Convolution_1534" type="Convolution" version="opset1">
			<data strides="1, 1" dilations="1, 1" pads_begin="0, 0" pads_end="0, 0" auto_pad="explicit"/>
			<rt_info>
				<attribute name="fused_names" version="0" value="Convolution_1534"/>
			</rt_info>
			<input>
				<port id="0" precision="FP32">
					<dim>1</dim>
					<dim>144</dim>
					<dim>180</dim>
					<dim>320</dim>
				</port>
				<port id="1" precision="FP32">
					<dim>24</dim>
					<dim>144</dim>
					<dim>1</dim>
					<dim>1</dim>
				</port>
			</input>
			<output>
				<port id="2" precision="FP32">
					<dim>1</dim>
					<dim>24</dim>
					<dim>180</dim>
					<dim>320</dim>
				</port>
			</output>
		</layer>
		<layer id="50" name="Reshape_1554" type="Const" version="opset1">
			<data element_type="f32" shape="1, 24, 1, 1" offset="64892" size="96"/>
			<output>
				<port id="0" precision="FP32">
					<dim>1</dim>
					<dim>24</dim>
					<dim>1</dim>
					<dim>1</dim>
				</port>
			</output>
		</layer>
		<layer id="51" name="2823" type="Add" version="opset1">
			<data auto_broadcast="numpy"/>
			<rt_info>
				<attribute name="fused_names" version="0" value="2823, Concat_1553, Reshape_1554"/>
			</rt_info>
			<input>
				<port id="0" precision="FP32">
					<dim>1</dim>
					<dim>24</dim>
					<dim>180</dim>
					<dim>320</dim>
				</port>
				<port id="1" precision="FP32">
					<dim>1</dim>
					<dim>24</dim>
					<dim>1</dim>
					<dim>1</dim>
				</port>
			</input>
			<output>
				<port id="2" precision="FP32" names="2823">
					<dim>1</dim>
					<dim>24</dim>
					<dim>180</dim>
					<dim>320</dim>
				</port>
			</output>
		</layer>
		<layer id="52" name="411" type="Add" version="opset1">
			<data auto_broadcast="numpy"/>
			<rt_info>
				<attribute name="fused_names" version="0" value="411"/>
			</rt_info>
			<input>
				<port id="0" precision="FP32">
					<dim>1</dim>
					<dim>24</dim>
					<dim>180</dim>
					<dim>320</dim>
				</port>
				<port id="1" precision="FP32">
					<dim>1</dim>
					<dim>24</dim>
					<dim>180</dim>
					<dim>320</dim>
				</port>
			</input>
			<output>
				<port id="2" precision="FP32" names="411">
					<dim>1</dim>
					<dim>24</dim>
					<dim>180</dim>
					<dim>320</dim>
				</port>
			</output>
		</layer>
		<layer id="53" name="2827" type="Const" version="opset1">
			<data element_type="f32" shape="144, 24, 1, 1" offset="64988" size="13824"/>
			<rt_info>
				<attribute name="fused_names" version="0" value="2827"/>
			</rt_info>
			<output>
				<port id="0" precision="FP32" names="2827">
					<dim>144</dim>
					<dim>24</dim>
					<dim>1</dim>
					<dim>1</dim>
				</port>
			</output>
		</layer>
		<layer id="54" name="Convolution_1583" type="Convolution" version="opset1">
			<data strides="1, 1" dilations="1, 1" pads_begin="0, 0" pads_end="0, 0" auto_pad="explicit"/>
			<rt_info>
				<attribute name="fused_names" version="0" value="Convolution_1583"/>
			</rt_info>
			<input>
				<port id="0" precision="FP32">
					<dim>1</dim>
					<dim>24</dim>
					<dim>180</dim>
					<dim>320</dim>
				</port>
				<port id="1" precision="FP32">
					<dim>144</dim>
					<dim>24</dim>
					<dim>1</dim>
					<dim>1</dim>
				</port>
			</input>
			<output>
				<port id="2" precision="FP32">
					<dim>1</dim>
					<dim>144</dim>
					<dim>180</dim>
					<dim>320</dim>
				</port>
			</output>
		</layer>
		<layer id="55" name="Reshape_1603" type="Const" version="opset1">
			<data element_type="f32" shape="1, 144, 1, 1" offset="78812" size="576"/>
			<output>
				<port id="0" precision="FP32">
					<dim>1</dim>
					<dim>144</dim>
					<dim>1</dim>
					<dim>1</dim>
				</port>
			</output>
		</layer>
		<layer id="56" name="2826" type="Add" version="opset1">
			<data auto_broadcast="numpy"/>
			<rt_info>
				<attribute name="fused_names" version="0" value="2826, Concat_1602, Reshape_1603"/>
			</rt_info>
			<input>
				<port id="0" precision="FP32">
					<dim>1</dim>
					<dim>144</dim>
					<dim>180</dim>
					<dim>320</dim>
				</port>
				<port id="1" precision="FP32">
					<dim>1</dim>
					<dim>144</dim>
					<dim>1</dim>
					<dim>1</dim>
				</port>
			</input>
			<output>
				<port id="2" precision="FP32" names="2826">
					<dim>1</dim>
					<dim>144</dim>
					<dim>180</dim>
					<dim>320</dim>
				</port>
			</output>
		</layer>
		<layer id="57" name="416" type="Clamp" version="opset1">
			<data min="0" max="6"/>
			<rt_info>
				<attribute name="fused_names" version="0" value="416, Maximum_1631"/>
			</rt_info>
			<input>
				<port id="0" precision="FP32">
					<dim>1</dim>
					<dim>144</dim>
					<dim>180</dim>
					<dim>320</dim>
				</port>
			</input>
			<output>
				<port id="1" precision="FP32" names="416">
					<dim>1</dim>
					<dim>144</dim>
					<dim>180</dim>
					<dim>320</dim>
				</port>
			</output>
		</layer>
		<layer id="58" name="Reshape_1640" type="Const" version="opset1">
			<data element_type="f32" shape="144, 1, 1, 3, 3" offset="79388" size="5184"/>
			<output>
				<port id="0" precision="FP32">
					<dim>144</dim>
					<dim>1</dim>
					<dim>1</dim>
					<dim>3</dim>
					<dim>3</dim>
				</port>
			</output>
		</layer>
		<layer id="59" name="GroupConvolution_1706" type="GroupConvolution" version="opset1">
			<data strides="2, 2" pads_begin="1, 1" pads_end="1, 1" dilations="1, 1" auto_pad="explicit"/>
			<rt_info>
				<attribute name="fused_names" version="0" value="GroupConvolution_1706, Reshape_1640"/>
			</rt_info>
			<input>
				<port id="0" precision="FP32">
					<dim>1</dim>
					<dim>144</dim>
					<dim>180</dim>
					<dim>320</dim>
				</port>
				<port id="1" precision="FP32">
					<dim>144</dim>
					<dim>1</dim>
					<dim>1</dim>
					<dim>3</dim>
					<dim>3</dim>
				</port>
			</input>
			<output>
				<port id="2" precision="FP32">
					<dim>1</dim>
					<dim>144</dim>
					<dim>90</dim>
					<dim>160</dim>
				</port>
			</output>
		</layer>
		<layer id="60" name="Reshape_1726" type="Const" version="opset1">
			<data element_type="f32" shape="1, 144, 1, 1" offset="84572" size="576"/>
			<output>
				<port id="0" precision="FP32">
					<dim>1</dim>
					<dim>144</dim>
					<dim>1</dim>
					<dim>1</dim>
				</port>
			</output>
		</layer>
		<layer id="61" name="2829" type="Add" version="opset1">
			<data auto_broadcast="numpy"/>
			<rt_info>
				<attribute name="fused_names" version="0" value="2829, Concat_1725, Reshape_1726"/>
			</rt_info>
			<input>
				<port id="0" precision="FP32">
					<dim>1</dim>
					<dim>144</dim>
					<dim>90</dim>
					<dim>160</dim>
				</port>
				<port id="1" precision="FP32">
					<dim>1</dim>
					<dim>144</dim>
					<dim>1</dim>
					<dim>1</dim>
				</port>
			</input>
			<output>
				<port id="2" precision="FP32" names="2829">
					<dim>1</dim>
					<dim>144</dim>
					<dim>90</dim>
					<dim>160</dim>
				</port>
			</output>
		</layer>
		<layer id="62" name="421" type="Clamp" version="opset1">
			<data min="0" max="6"/>
			<rt_info>
				<attribute name="fused_names" version="0" value="421, Maximum_1754"/>
			</rt_info>
			<input>
				<port id="0" precision="FP32">
					<dim>1</dim>
					<dim>144</dim>
					<dim>90</dim>
					<dim>160</dim>
				</port>
			</input>
			<output>
				<port id="1" precision="FP32" names="421">
					<dim>1</dim>
					<dim>144</dim>
					<dim>90</dim>
					<dim>160</dim>
				</port>
			</output>
		</layer>
		<layer id="63" name="2833" type="Const" version="opset1">
			<data element_type="f32" shape="32, 144, 1, 1" offset="85148" size="18432"/>
			<rt_info>
				<attribute name="fused_names" version="0" value="2833"/>
			</rt_info>
			<output>
				<port id="0" precision="FP32" names="2833">
					<dim>32</dim>
					<dim>144</dim>
					<dim>1</dim>
					<dim>1</dim>
				</port>
			</output>
		</layer>
		<layer id="64" name="Convolution_1756" type="Convolution" version="opset1">
			<data strides="1, 1" dilations="1, 1" pads_begin="0, 0" pads_end="0, 0" auto_pad="explicit"/>
			<rt_info>
				<attribute name="fused_names" version="0" value="Convolution_1756"/>
			</rt_info>
			<input>
				<port id="0" precision="FP32">
					<dim>1</dim>
					<dim>144</dim>
					<dim>90</dim>
					<dim>160</dim>
				</port>
				<port id="1" precision="FP32">
					<dim>32</dim>
					<dim>144</dim>
					<dim>1</dim>
					<dim>1</dim>
				</port>
			</input>
			<output>
				<port id="2" precision="FP32">
					<dim>1</dim>
					<dim>32</dim>
					<dim>90</dim>
					<dim>160</dim>
				</port>
			</output>
		</layer>
		<layer id="65" name="Reshape_1776" type="Const" version="opset1">
			<data element_type="f32" shape="1, 32, 1, 1" offset="103580" size="128"/>
			<output>
				<port id="0" precision="FP32">
					<dim>1</dim>
					<dim>32</dim>
					<dim>1</dim>
					<dim>1</dim>
				</port>
			</output>
		</layer>
		<layer id="66" name="2832" type="Add" version="opset1">
			<data auto_broadcast="numpy"/>
			<rt_info>
				<attribute name="fused_names" version="0" value="2832, Concat_1775, Reshape_1776"/>
			</rt_info>
			<input>
				<port id="0" precision="FP32">
					<dim>1</dim>
					<dim>32</dim>
					<dim>90</dim>
					<dim>160</dim>
				</port>
				<port id="1" precision="FP32">
					<dim>1</dim>
					<dim>32</dim>
					<dim>1</dim>
					<dim>1</dim>
				</port>
			</input>
			<output>
				<port id="2" precision="FP32" names="2832">
					<dim>1</dim>
					<dim>32</dim>
					<dim>90</dim>
					<dim>160</dim>
				</port>
			</output>
		</layer>
		<layer id="67" name="2836" type="Const" version="opset1">
			<data element_type="f32" shape="192, 32, 1, 1" offset="103708" size="24576"/>
			<rt_info>
				<attribute name="fused_names" version="0" value="2836"/>
			</rt_info>
			<output>
				<port id="0" precision="FP32" names="2836">
					<dim>192</dim>
					<dim>32</dim>
					<dim>1</dim>
					<dim>1</dim>
				</port>
			</output>
		</layer>
		<layer id="68" name="Convolution_1804" type="Convolution" version="opset1">
			<data strides="1, 1" dilations="1, 1" pads_begin="0, 0" pads_end="0, 0" auto_pad="explicit"/>
			<rt_info>
				<attribute name="fused_names" version="0" value="Convolution_1804"/>
			</rt_info>
			<input>
				<port id="0" precision="FP32">
					<dim>1</dim>
					<dim>32</dim>
					<dim>90</dim>
					<dim>160</dim>
				</port>
				<port id="1" precision="FP32">
					<dim>192</dim>
					<dim>32</dim>
					<dim>1</dim>
					<dim>1</dim>
				</port>
			</input>
			<output>
				<port id="2" precision="FP32">
					<dim>1</dim>
					<dim>192</dim>
					<dim>90</dim>
					<dim>160</dim>
				</port>
			</output>
		</layer>
		<layer id="69" name="Reshape_1824" type="Const" version="opset1">
			<data element_type="f32" shape="1, 192, 1, 1" offset="128284" size="768"/>
			<output>
				<port id="0" precision="FP32">
					<dim>1</dim>
					<dim>192</dim>
					<dim>1</dim>
					<dim>1</dim>
				</port>
			</output>
		</layer>
		<layer id="70" name="2835" type="Add" version="opset1">
			<data auto_broadcast="numpy"/>
			<rt_info>
				<attribute name="fused_names" version="0" value="2835, Concat_1823, Reshape_1824"/>
			</rt_info>
			<input>
				<port id="0" precision="FP32">
					<dim>1</dim>
					<dim>192</dim>
					<dim>90</dim>
					<dim>160</dim>
				</port>
				<port id="1" precision="FP32">
					<dim>1</dim>
					<dim>192</dim>
					<dim>1</dim>
					<dim>1</dim>
				</port>
			</input>
			<output>
				<port id="2" precision="FP32" names="2835">
					<dim>1</dim>
					<dim>192</dim>
					<dim>90</dim>
					<dim>160</dim>
				</port>
			</output>
		</layer>
		<layer id="71" name="428" type="Clamp" version="opset1">
			<data min="0" max="6"/>
			<rt_info>
				<attribute name="fused_names" version="0" value="428, Maximum_1852"/>
			</rt_info>
			<input>
				<port id="0" precision="FP32">
					<dim>1</dim>
					<dim>192</dim>
					<dim>90</dim>
					<dim>160</dim>
				</port>
			</input>
			<output>
				<port id="1" precision="FP32" names="428">
					<dim>1</dim>
					<dim>192</dim>
					<dim>90</dim>
					<dim>160</dim>
				</port>
			</output>
		</layer>
		<layer id="72" name="Reshape_1861" type="Const" version="opset1">
			<data element_type="f32" shape="192, 1, 1, 3, 3" offset="129052" size="6912"/>
			<output>
				<port id="0" precision="FP32">
					<dim>192</dim>
					<dim>1</dim>
					<dim>1</dim>
					<dim>3</dim>
					<dim>3</dim>
				</port>
			</output>
		</layer>
		<layer id="73" name="GroupConvolution_1927" type="GroupConvolution" version="opset1">
			<data strides="1, 1" pads_begin="1, 1" pads_end="1, 1" dilations="1, 1" auto_pad="explicit"/>
			<rt_info>
				<attribute name="fused_names" version="0" value="GroupConvolution_1927, Reshape_1861"/>
			</rt_info>
			<input>
				<port id="0" precision="FP32">
					<dim>1</dim>
					<dim>192</dim>
					<dim>90</dim>
					<dim>160</dim>
				</port>
				<port id="1" precision="FP32">
					<dim>192</dim>
					<dim>1</dim>
					<dim>1</dim>
					<dim>3</dim>
					<dim>3</dim>
				</port>
			</input>
			<output>
				<port id="2" precision="FP32">
					<dim>1</dim>
					<dim>192</dim>
					<dim>90</dim>
					<dim>160</dim>
				</port>
			</output>
		</layer>
		<layer id="74" name="Reshape_1947" type="Const" version="opset1">
			<data element_type="f32" shape="1, 192, 1, 1" offset="135964" size="768"/>
			<output>
				<port id="0" precision="FP32">
					<dim>1</dim>
					<dim>192</dim>
					<dim>1</dim>
					<dim>1</dim>
				</port>
			</output>
		</layer>
		<layer id="75" name="2838" type="Add" version="opset1">
			<data auto_broadcast="numpy"/>
			<rt_info>
				<attribute name="fused_names" version="0" value="2838, Concat_1946, Reshape_1947"/>
			</rt_info>
			<input>
				<port id="0" precision="FP32">
					<dim>1</dim>
					<dim>192</dim>
					<dim>90</dim>
					<dim>160</dim>
				</port>
				<port id="1" precision="FP32">
					<dim>1</dim>
					<dim>192</dim>
					<dim>1</dim>
					<dim>1</dim>
				</port>
			</input>
			<output>
				<port id="2" precision="FP32" names="2838">
					<dim>1</dim>
					<dim>192</dim>
					<dim>90</dim>
					<dim>160</dim>
				</port>
			</output>
		</layer>
		<layer id="76" name="433" type="Clamp" version="opset1">
			<data min="0" max="6"/>
			<rt_info>
				<attribute name="fused_names" version="0" value="433, Maximum_1975"/>
			</rt_info>
			<input>
				<port id="0" precision="FP32">
					<dim>1</dim>
					<dim>192</dim>
					<dim>90</dim>
					<dim>160</dim>
				</port>
			</input>
			<output>
				<port id="1" precision="FP32" names="433">
					<dim>1</dim>
					<dim>192</dim>
					<dim>90</dim>
					<dim>160</dim>
				</port>
			</output>
		</layer>
		<layer id="77" name="2842" type="Const" version="opset1">
			<data element_type="f32" shape="32, 192, 1, 1" offset="136732" size="24576"/>
			<rt_info>
				<attribute name="fused_names" version="0" value="2842"/>
			</rt_info>
			<output>
				<port id="0" precision="FP32" names="2842">
					<dim>32</dim>
					<dim>192</dim>
					<dim>1</dim>
					<dim>1</dim>
				</port>
			</output>
		</layer>
		<layer id="78" name="Convolution_1977" type="Convolution" version="opset1">
			<data strides="1, 1" dilations="1, 1" pads_begin="0, 0" pads_end="0, 0" auto_pad="explicit"/>
			<rt_info>
				<attribute name="fused_names" version="0" value="Convolution_1977"/>
			</rt_info>
			<input>
				<port id="0" precision="FP32">
					<dim>1</dim>
					<dim>192</dim>
					<dim>90</dim>
					<dim>160</dim>
				</port>
				<port id="1" precision="FP32">
					<dim>32</dim>
					<dim>192</dim>
					<dim>1</dim>
					<dim>1</dim>
				</port>
			</input>
			<output>
				<port id="2" precision="FP32">
					<dim>1</dim>
					<dim>32</dim>
					<dim>90</dim>
					<dim>160</dim>
				</port>
			</output>
		</layer>
		<layer id="79" name="Reshape_1997" type="Const" version="opset1">
			<data element_type="f32" shape="1, 32, 1, 1" offset="161308" size="128"/>
			<output>
				<port id="0" precision="FP32">
					<dim>1</dim>
					<dim>32</dim>
					<dim>1</dim>
					<dim>1</dim>
				</port>
			</output>
		</layer>
		<layer id="80" name="2841" type="Add" version="opset1">
			<data auto_broadcast="numpy"/>
			<rt_info>
				<attribute name="fused_names" version="0" value="2841, Concat_1996, Reshape_1997"/>
			</rt_info>
			<input>
				<port id="0" precision="FP32">
					<dim>1</dim>
					<dim>32</dim>
					<dim>90</dim>
					<dim>160</dim>
				</port>
				<port id="1" precision="FP32">
					<dim>1</dim>
					<dim>32</dim>
					<dim>1</dim>
					<dim>1</dim>
				</port>
			</input>
			<output>
				<port id="2" precision="FP32" names="2841">
					<dim>1</dim>
					<dim>32</dim>
					<dim>90</dim>
					<dim>160</dim>
				</port>
			</output>
		</layer>
		<layer id="81" name="436" type="Add" version="opset1">
			<data auto_broadcast="numpy"/>
			<rt_info>
				<attribute name="fused_names" version="0" value="436"/>
			</rt_info>
			<input>
				<port id="0" precision="FP32">
					<dim>1</dim>
					<dim>32</dim>
					<dim>90</dim>
					<dim>160</dim>
				</port>
				<port id="1" precision="FP32">
					<dim>1</dim>
					<dim>32</dim>
					<dim>90</dim>
					<dim>160</dim>
				</port>
			</input>
			<output>
				<port id="2" precision="FP32" names="436">
					<dim>1</dim>
					<dim>32</dim>
					<dim>90</dim>
					<dim>160</dim>
				</port>
			</output>
		</layer>
		<layer id="82" name="2845" type="Const" version="opset1">
			<data element_type="f32" shape="192, 32, 1, 1" offset="161436" size="24576"/>
			<rt_info>
				<attribute name="fused_names" version="0" value="2845"/>
			</rt_info>
			<output>
				<port id="0" precision="FP32" names="2845">
					<dim>192</dim>
					<dim>32</dim>
					<dim>1</dim>
					<dim>1</dim>
				</port>
			</output>
		</layer>
		<layer id="83" name="Convolution_2026" type="Convolution" version="opset1">
			<data strides="1, 1" dilations="1, 1" pads_begin="0, 0" pads_end="0, 0" auto_pad="explicit"/>
			<rt_info>
				<attribute name="fused_names" version="0" value="Convolution_2026"/>
			</rt_info>
			<input>
				<port id="0" precision="FP32">
					<dim>1</dim>
					<dim>32</dim>
					<dim>90</dim>
					<dim>160</dim>
				</port>
				<port id="1" precision="FP32">
					<dim>192</dim>
					<dim>32</dim>
					<dim>1</dim>
					<dim>1</dim>
				</port>
			</input>
			<output>
				<port id="2" precision="FP32">
					<dim>1</dim>
					<dim>192</dim>
					<dim>90</dim>
					<dim>160</dim>
				</port>
			</output>
		</layer>
		<layer id="84" name="Reshape_2046" type="Const" version="opset1">
			<data element_type="f32" shape="1, 192, 1, 1" offset="186012" size="768"/>
			<output>
				<port id="0" precision="FP32">
					<dim>1</dim>
					<dim>192</dim>
					<dim>1</dim>
					<dim>1</dim>
				</port>
			</output>
		</layer>
		<layer id="85" name="2844" type="Add" version="opset1">
			<data auto_broadcast="numpy"/>
			<rt_info>
				<attribute name="fused_names" version="0" value="2844, Concat_2045, Reshape_2046"/>
			</rt_info>
			<input>
				<port id="0" precision="FP32">
					<dim>1</dim>
					<dim>192</dim>
					<dim>90</dim>
					<dim>160</dim>
				</port>
				<port id="1" precision="FP32">
					<dim>1</dim>
					<dim>192</dim>
					<dim>1</dim>
					<dim>1</dim>
				</port>
			</input>
			<output>
				<port id="2" precision="FP32" names="2844">
					<dim>1</dim>
					<dim>192</dim>
					<dim>90</dim>
					<dim>160</dim>
				</port>
			</output>
		</layer>
		<layer id="86" name="441" type="Clamp" version="opset1">
			<data min="0" max="6"/>
			<rt_info>
				<attribute name="fused_names" version="0" value="441, Maximum_2074"/>
			</rt_info>
			<input>
				<port id="0" precision="FP32">
					<dim>1</dim>
					<dim>192</dim>
					<dim>90</dim>
					<dim>160</dim>
				</port>
			</input>
			<output>
				<port id="1" precision="FP32" names="441">
					<dim>1</dim>
					<dim>192</dim>
					<dim>90</dim>
					<dim>160</dim>
				</port>
			</output>
		</layer>
		<layer id="87" name="Reshape_2083" type="Const" version="opset1">
			<data element_type="f32" shape="192, 1, 1, 3, 3" offset="186780" size="6912"/>
			<output>
				<port id="0" precision="FP32">
					<dim>192</dim>
					<dim>1</dim>
					<dim>1</dim>
					<dim>3</dim>
					<dim>3</dim>
				</port>
			</output>
		</layer>
		<layer id="88" name="GroupConvolution_2149" type="GroupConvolution" version="opset1">
			<data strides="1, 1" pads_begin="1, 1" pads_end="1, 1" dilations="1, 1" auto_pad="explicit"/>
			<rt_info>
				<attribute name="fused_names" version="0" value="GroupConvolution_2149, Reshape_2083"/>
			</rt_info>
			<input>
				<port id="0" precision="FP32">
					<dim>1</dim>
					<dim>192</dim>
					<dim>90</dim>
					<dim>160</dim>
				</port>
				<port id="1" precision="FP32">
					<dim>192</dim>
					<dim>1</dim>
					<dim>1</dim>
					<dim>3</dim>
					<dim>3</dim>
				</port>
			</input>
			<output>
				<port id="2" precision="FP32">
					<dim>1</dim>
					<dim>192</dim>
					<dim>90</dim>
					<dim>160</dim>
				</port>
			</output>
		</layer>
		<layer id="89" name="Reshape_2169" type="Const" version="opset1">
			<data element_type="f32" shape="1, 192, 1, 1" offset="193692" size="768"/>
			<output>
				<port id="0" precision="FP32">
					<dim>1</dim>
					<dim>192</dim>
					<dim>1</dim>
					<dim>1</dim>
				</port>
			</output>
		</layer>
		<layer id="90" name="2847" type="Add" version="opset1">
			<data auto_broadcast="numpy"/>
			<rt_info>
				<attribute name="fused_names" version="0" value="2847, Concat_2168, Reshape_2169"/>
			</rt_info>
			<input>
				<port id="0" precision="FP32">
					<dim>1</dim>
					<dim>192</dim>
					<dim>90</dim>
					<dim>160</dim>
				</port>
				<port id="1" precision="FP32">
					<dim>1</dim>
					<dim>192</dim>
					<dim>1</dim>
					<dim>1</dim>
				</port>
			</input>
			<output>
				<port id="2" precision="FP32" names="2847">
					<dim>1</dim>
					<dim>192</dim>
					<dim>90</dim>
					<dim>160</dim>
				</port>
			</output>
		</layer>
		<layer id="91" name="446" type="Clamp" version="opset1">
			<data min="0" max="6"/>
			<rt_info>
				<attribute name="fused_names" version="0" value="446, Maximum_2197"/>
			</rt_info>
			<input>
				<port id="0" precision="FP32">
					<dim>1</dim>
					<dim>192</dim>
					<dim>90</dim>
					<dim>160</dim>
				</port>
			</input>
			<output>
				<port id="1" precision="FP32" names="446">
					<dim>1</dim>
					<dim>192</dim>
					<dim>90</dim>
					<dim>160</dim>
				</port>
			</output>
		</layer>
		<layer id="92" name="2851" type="Const" version="opset1">
			<data element_type="f32" shape="32, 192, 1, 1" offset="194460" size="24576"/>
			<rt_info>
				<attribute name="fused_names" version="0" value="2851"/>
			</rt_info>
			<output>
				<port id="0" precision="FP32" names="2851">
					<dim>32</dim>
					<dim>192</dim>
					<dim>1</dim>
					<dim>1</dim>
				</port>
			</output>
		</layer>
		<layer id="93" name="Convolution_2199" type="Convolution" version="opset1">
			<data strides="1, 1" dilations="1, 1" pads_begin="0, 0" pads_end="0, 0" auto_pad="explicit"/>
			<rt_info>
				<attribute name="fused_names" version="0" value="Convolution_2199"/>
			</rt_info>
			<input>
				<port id="0" precision="FP32">
					<dim>1</dim>
					<dim>192</dim>
					<dim>90</dim>
					<dim>160</dim>
				</port>
				<port id="1" precision="FP32">
					<dim>32</dim>
					<dim>192</dim>
					<dim>1</dim>
					<dim>1</dim>
				</port>
			</input>
			<output>
				<port id="2" precision="FP32">
					<dim>1</dim>
					<dim>32</dim>
					<dim>90</dim>
					<dim>160</dim>
				</port>
			</output>
		</layer>
		<layer id="94" name="Reshape_2219" type="Const" version="opset1">
			<data element_type="f32" shape="1, 32, 1, 1" offset="219036" size="128"/>
			<output>
				<port id="0" precision="FP32">
					<dim>1</dim>
					<dim>32</dim>
					<dim>1</dim>
					<dim>1</dim>
				</port>
			</output>
		</layer>
		<layer id="95" name="2850" type="Add" version="opset1">
			<data auto_broadcast="numpy"/>
			<rt_info>
				<attribute name="fused_names" version="0" value="2850, Concat_2218, Reshape_2219"/>
			</rt_info>
			<input>
				<port id="0" precision="FP32">
					<dim>1</dim>
					<dim>32</dim>
					<dim>90</dim>
					<dim>160</dim>
				</port>
				<port id="1" precision="FP32">
					<dim>1</dim>
					<dim>32</dim>
					<dim>1</dim>
					<dim>1</dim>
				</port>
			</input>
			<output>
				<port id="2" precision="FP32" names="2850">
					<dim>1</dim>
					<dim>32</dim>
					<dim>90</dim>
					<dim>160</dim>
				</port>
			</output>
		</layer>
		<layer id="96" name="449" type="Add" version="opset1">
			<data auto_broadcast="numpy"/>
			<rt_info>
				<attribute name="fused_names" version="0" value="449"/>
			</rt_info>
			<input>
				<port id="0" precision="FP32">
					<dim>1</dim>
					<dim>32</dim>
					<dim>90</dim>
					<dim>160</dim>
				</port>
				<port id="1" precision="FP32">
					<dim>1</dim>
					<dim>32</dim>
					<dim>90</dim>
					<dim>160</dim>
				</port>
			</input>
			<output>
				<port id="2" precision="FP32" names="449">
					<dim>1</dim>
					<dim>32</dim>
					<dim>90</dim>
					<dim>160</dim>
				</port>
			</output>
		</layer>
		<layer id="97" name="neck.lateral_convs.0.conv.weight" type="Const" version="opset1">
			<data element_type="f32" shape="64, 32, 1, 1" offset="219164" size="8192"/>
			<rt_info>
				<attribute name="fused_names" version="0" value="neck.lateral_convs.0.conv.weight"/>
			</rt_info>
			<output>
				<port id="0" precision="FP32" names="neck.lateral_convs.0.conv.weight">
					<dim>64</dim>
					<dim>32</dim>
					<dim>1</dim>
					<dim>1</dim>
				</port>
			</output>
		</layer>
		<layer id="98" name="Convolution_4686" type="Convolution" version="opset1">
			<data strides="1, 1" dilations="1, 1" pads_begin="0, 0" pads_end="0, 0" auto_pad="explicit"/>
			<rt_info>
				<attribute name="fused_names" version="0" value="Convolution_4686"/>
			</rt_info>
			<input>
				<port id="0" precision="FP32">
					<dim>1</dim>
					<dim>32</dim>
					<dim>90</dim>
					<dim>160</dim>
				</port>
				<port id="1" precision="FP32">
					<dim>64</dim>
					<dim>32</dim>
					<dim>1</dim>
					<dim>1</dim>
				</port>
			</input>
			<output>
				<port id="2" precision="FP32">
					<dim>1</dim>
					<dim>64</dim>
					<dim>90</dim>
					<dim>160</dim>
				</port>
			</output>
		</layer>
		<layer id="99" name="Reshape_4706" type="Const" version="opset1">
			<data element_type="f32" shape="1, 64, 1, 1" offset="227356" size="256"/>
			<output>
				<port id="0" precision="FP32">
					<dim>1</dim>
					<dim>64</dim>
					<dim>1</dim>
					<dim>1</dim>
				</port>
			</output>
		</layer>
		<layer id="100" name="589" type="Add" version="opset1">
			<data auto_broadcast="numpy"/>
			<rt_info>
				<attribute name="fused_names" version="0" value="589, Concat_4705, Reshape_4706"/>
			</rt_info>
			<input>
				<port id="0" precision="FP32">
					<dim>1</dim>
					<dim>64</dim>
					<dim>90</dim>
					<dim>160</dim>
				</port>
				<port id="1" precision="FP32">
					<dim>1</dim>
					<dim>64</dim>
					<dim>1</dim>
					<dim>1</dim>
				</port>
			</input>
			<output>
				<port id="2" precision="FP32" names="589">
					<dim>1</dim>
					<dim>64</dim>
					<dim>90</dim>
					<dim>160</dim>
				</port>
			</output>
		</layer>
		<layer id="101" name="2854" type="Const" version="opset1">
			<data element_type="f32" shape="192, 32, 1, 1" offset="227612" size="24576"/>
			<rt_info>
				<attribute name="fused_names" version="0" value="2854"/>
			</rt_info>
			<output>
				<port id="0" precision="FP32" names="2854">
					<dim>192</dim>
					<dim>32</dim>
					<dim>1</dim>
					<dim>1</dim>
				</port>
			</output>
		</layer>
		<layer id="102" name="Convolution_2248" type="Convolution" version="opset1">
			<data strides="1, 1" dilations="1, 1" pads_begin="0, 0" pads_end="0, 0" auto_pad="explicit"/>
			<rt_info>
				<attribute name="fused_names" version="0" value="Convolution_2248"/>
			</rt_info>
			<input>
				<port id="0" precision="FP32">
					<dim>1</dim>
					<dim>32</dim>
					<dim>90</dim>
					<dim>160</dim>
				</port>
				<port id="1" precision="FP32">
					<dim>192</dim>
					<dim>32</dim>
					<dim>1</dim>
					<dim>1</dim>
				</port>
			</input>
			<output>
				<port id="2" precision="FP32">
					<dim>1</dim>
					<dim>192</dim>
					<dim>90</dim>
					<dim>160</dim>
				</port>
			</output>
		</layer>
		<layer id="103" name="Reshape_2268" type="Const" version="opset1">
			<data element_type="f32" shape="1, 192, 1, 1" offset="252188" size="768"/>
			<output>
				<port id="0" precision="FP32">
					<dim>1</dim>
					<dim>192</dim>
					<dim>1</dim>
					<dim>1</dim>
				</port>
			</output>
		</layer>
		<layer id="104" name="2853" type="Add" version="opset1">
			<data auto_broadcast="numpy"/>
			<rt_info>
				<attribute name="fused_names" version="0" value="2853, Concat_2267, Reshape_2268"/>
			</rt_info>
			<input>
				<port id="0" precision="FP32">
					<dim>1</dim>
					<dim>192</dim>
					<dim>90</dim>
					<dim>160</dim>
				</port>
				<port id="1" precision="FP32">
					<dim>1</dim>
					<dim>192</dim>
					<dim>1</dim>
					<dim>1</dim>
				</port>
			</input>
			<output>
				<port id="2" precision="FP32" names="2853">
					<dim>1</dim>
					<dim>192</dim>
					<dim>90</dim>
					<dim>160</dim>
				</port>
			</output>
		</layer>
		<layer id="105" name="454" type="Clamp" version="opset1">
			<data min="0" max="6"/>
			<rt_info>
				<attribute name="fused_names" version="0" value="454, Maximum_2296"/>
			</rt_info>
			<input>
				<port id="0" precision="FP32">
					<dim>1</dim>
					<dim>192</dim>
					<dim>90</dim>
					<dim>160</dim>
				</port>
			</input>
			<output>
				<port id="1" precision="FP32" names="454">
					<dim>1</dim>
					<dim>192</dim>
					<dim>90</dim>
					<dim>160</dim>
				</port>
			</output>
		</layer>
		<layer id="106" name="Reshape_2305" type="Const" version="opset1">
			<data element_type="f32" shape="192, 1, 1, 3, 3" offset="252956" size="6912"/>
			<output>
				<port id="0" precision="FP32">
					<dim>192</dim>
					<dim>1</dim>
					<dim>1</dim>
					<dim>3</dim>
					<dim>3</dim>
				</port>
			</output>
		</layer>
		<layer id="107" name="GroupConvolution_2371" type="GroupConvolution" version="opset1">
			<data strides="2, 2" pads_begin="1, 1" pads_end="1, 1" dilations="1, 1" auto_pad="explicit"/>
			<rt_info>
				<attribute name="fused_names" version="0" value="GroupConvolution_2371, Reshape_2305"/>
			</rt_info>
			<input>
				<port id="0" precision="FP32">
					<dim>1</dim>
					<dim>192</dim>
					<dim>90</dim>
					<dim>160</dim>
				</port>
				<port id="1" precision="FP32">
					<dim>192</dim>
					<dim>1</dim>
					<dim>1</dim>
					<dim>3</dim>
					<dim>3</dim>
				</port>
			</input>
			<output>
				<port id="2" precision="FP32">
					<dim>1</dim>
					<dim>192</dim>
					<dim>45</dim>
					<dim>80</dim>
				</port>
			</output>
		</layer>
		<layer id="108" name="Reshape_2391" type="Const" version="opset1">
			<data element_type="f32" shape="1, 192, 1, 1" offset="259868" size="768"/>
			<output>
				<port id="0" precision="FP32">
					<dim>1</dim>
					<dim>192</dim>
					<dim>1</dim>
					<dim>1</dim>
				</port>
			</output>
		</layer>
		<layer id="109" name="2856" type="Add" version="opset1">
			<data auto_broadcast="numpy"/>
			<rt_info>
				<attribute name="fused_names" version="0" value="2856, Concat_2390, Reshape_2391"/>
			</rt_info>
			<input>
				<port id="0" precision="FP32">
					<dim>1</dim>
					<dim>192</dim>
					<dim>45</dim>
					<dim>80</dim>
				</port>
				<port id="1" precision="FP32">
					<dim>1</dim>
					<dim>192</dim>
					<dim>1</dim>
					<dim>1</dim>
				</port>
			</input>
			<output>
				<port id="2" precision="FP32" names="2856">
					<dim>1</dim>
					<dim>192</dim>
					<dim>45</dim>
					<dim>80</dim>
				</port>
			</output>
		</layer>
		<layer id="110" name="459" type="Clamp" version="opset1">
			<data min="0" max="6"/>
			<rt_info>
				<attribute name="fused_names" version="0" value="459, Maximum_2419"/>
			</rt_info>
			<input>
				<port id="0" precision="FP32">
					<dim>1</dim>
					<dim>192</dim>
					<dim>45</dim>
					<dim>80</dim>
				</port>
			</input>
			<output>
				<port id="1" precision="FP32" names="459">
					<dim>1</dim>
					<dim>192</dim>
					<dim>45</dim>
					<dim>80</dim>
				</port>
			</output>
		</layer>
		<layer id="111" name="2860" type="Const" version="opset1">
			<data element_type="f32" shape="64, 192, 1, 1" offset="260636" size="49152"/>
			<rt_info>
				<attribute name="fused_names" version="0" value="2860"/>
			</rt_info>
			<output>
				<port id="0" precision="FP32" names="2860">
					<dim>64</dim>
					<dim>192</dim>
					<dim>1</dim>
					<dim>1</dim>
				</port>
			</output>
		</layer>
		<layer id="112" name="Convolution_2421" type="Convolution" version="opset1">
			<data strides="1, 1" dilations="1, 1" pads_begin="0, 0" pads_end="0, 0" auto_pad="explicit"/>
			<rt_info>
				<attribute name="fused_names" version="0" value="Convolution_2421"/>
			</rt_info>
			<input>
				<port id="0" precision="FP32">
					<dim>1</dim>
					<dim>192</dim>
					<dim>45</dim>
					<dim>80</dim>
				</port>
				<port id="1" precision="FP32">
					<dim>64</dim>
					<dim>192</dim>
					<dim>1</dim>
					<dim>1</dim>
				</port>
			</input>
			<output>
				<port id="2" precision="FP32">
					<dim>1</dim>
					<dim>64</dim>
					<dim>45</dim>
					<dim>80</dim>
				</port>
			</output>
		</layer>
		<layer id="113" name="Reshape_2441" type="Const" version="opset1">
			<data element_type="f32" shape="1, 64, 1, 1" offset="309788" size="256"/>
			<output>
				<port id="0" precision="FP32">
					<dim>1</dim>
					<dim>64</dim>
					<dim>1</dim>
					<dim>1</dim>
				</port>
			</output>
		</layer>
		<layer id="114" name="2859" type="Add" version="opset1">
			<data auto_broadcast="numpy"/>
			<rt_info>
				<attribute name="fused_names" version="0" value="2859, Concat_2440, Reshape_2441"/>
			</rt_info>
			<input>
				<port id="0" precision="FP32">
					<dim>1</dim>
					<dim>64</dim>
					<dim>45</dim>
					<dim>80</dim>
				</port>
				<port id="1" precision="FP32">
					<dim>1</dim>
					<dim>64</dim>
					<dim>1</dim>
					<dim>1</dim>
				</port>
			</input>
			<output>
				<port id="2" precision="FP32" names="2859">
					<dim>1</dim>
					<dim>64</dim>
					<dim>45</dim>
					<dim>80</dim>
				</port>
			</output>
		</layer>
		<layer id="115" name="2863" type="Const" version="opset1">
			<data element_type="f32" shape="384, 64, 1, 1" offset="310044" size="98304"/>
			<rt_info>
				<attribute name="fused_names" version="0" value="2863"/>
			</rt_info>
			<output>
				<port id="0" precision="FP32" names="2863">
					<dim>384</dim>
					<dim>64</dim>
					<dim>1</dim>
					<dim>1</dim>
				</port>
			</output>
		</layer>
		<layer id="116" name="Convolution_2469" type="Convolution" version="opset1">
			<data strides="1, 1" dilations="1, 1" pads_begin="0, 0" pads_end="0, 0" auto_pad="explicit"/>
			<rt_info>
				<attribute name="fused_names" version="0" value="Convolution_2469"/>
			</rt_info>
			<input>
				<port id="0" precision="FP32">
					<dim>1</dim>
					<dim>64</dim>
					<dim>45</dim>
					<dim>80</dim>
				</port>
				<port id="1" precision="FP32">
					<dim>384</dim>
					<dim>64</dim>
					<dim>1</dim>
					<dim>1</dim>
				</port>
			</input>
			<output>
				<port id="2" precision="FP32">
					<dim>1</dim>
					<dim>384</dim>
					<dim>45</dim>
					<dim>80</dim>
				</port>
			</output>
		</layer>
		<layer id="117" name="Reshape_2489" type="Const" version="opset1">
			<data element_type="f32" shape="1, 384, 1, 1" offset="408348" size="1536"/>
			<output>
				<port id="0" precision="FP32">
					<dim>1</dim>
					<dim>384</dim>
					<dim>1</dim>
					<dim>1</dim>
				</port>
			</output>
		</layer>
		<layer id="118" name="2862" type="Add" version="opset1">
			<data auto_broadcast="numpy"/>
			<rt_info>
				<attribute name="fused_names" version="0" value="2862, Concat_2488, Reshape_2489"/>
			</rt_info>
			<input>
				<port id="0" precision="FP32">
					<dim>1</dim>
					<dim>384</dim>
					<dim>45</dim>
					<dim>80</dim>
				</port>
				<port id="1" precision="FP32">
					<dim>1</dim>
					<dim>384</dim>
					<dim>1</dim>
					<dim>1</dim>
				</port>
			</input>
			<output>
				<port id="2" precision="FP32" names="2862">
					<dim>1</dim>
					<dim>384</dim>
					<dim>45</dim>
					<dim>80</dim>
				</port>
			</output>
		</layer>
		<layer id="119" name="466" type="Clamp" version="opset1">
			<data min="0" max="6"/>
			<rt_info>
				<attribute name="fused_names" version="0" value="466, Maximum_2517"/>
			</rt_info>
			<input>
				<port id="0" precision="FP32">
					<dim>1</dim>
					<dim>384</dim>
					<dim>45</dim>
					<dim>80</dim>
				</port>
			</input>
			<output>
				<port id="1" precision="FP32" names="466">
					<dim>1</dim>
					<dim>384</dim>
					<dim>45</dim>
					<dim>80</dim>
				</port>
			</output>
		</layer>
		<layer id="120" name="Reshape_2526" type="Const" version="opset1">
			<data element_type="f32" shape="384, 1, 1, 3, 3" offset="409884" size="13824"/>
			<output>
				<port id="0" precision="FP32">
					<dim>384</dim>
					<dim>1</dim>
					<dim>1</dim>
					<dim>3</dim>
					<dim>3</dim>
				</port>
			</output>
		</layer>
		<layer id="121" name="GroupConvolution_2592" type="GroupConvolution" version="opset1">
			<data strides="1, 1" pads_begin="1, 1" pads_end="1, 1" dilations="1, 1" auto_pad="explicit"/>
			<rt_info>
				<attribute name="fused_names" version="0" value="GroupConvolution_2592, Reshape_2526"/>
			</rt_info>
			<input>
				<port id="0" precision="FP32">
					<dim>1</dim>
					<dim>384</dim>
					<dim>45</dim>
					<dim>80</dim>
				</port>
				<port id="1" precision="FP32">
					<dim>384</dim>
					<dim>1</dim>
					<dim>1</dim>
					<dim>3</dim>
					<dim>3</dim>
				</port>
			</input>
			<output>
				<port id="2" precision="FP32">
					<dim>1</dim>
					<dim>384</dim>
					<dim>45</dim>
					<dim>80</dim>
				</port>
			</output>
		</layer>
		<layer id="122" name="Reshape_2612" type="Const" version="opset1">
			<data element_type="f32" shape="1, 384, 1, 1" offset="423708" size="1536"/>
			<output>
				<port id="0" precision="FP32">
					<dim>1</dim>
					<dim>384</dim>
					<dim>1</dim>
					<dim>1</dim>
				</port>
			</output>
		</layer>
		<layer id="123" name="2865" type="Add" version="opset1">
			<data auto_broadcast="numpy"/>
			<rt_info>
				<attribute name="fused_names" version="0" value="2865, Concat_2611, Reshape_2612"/>
			</rt_info>
			<input>
				<port id="0" precision="FP32">
					<dim>1</dim>
					<dim>384</dim>
					<dim>45</dim>
					<dim>80</dim>
				</port>
				<port id="1" precision="FP32">
					<dim>1</dim>
					<dim>384</dim>
					<dim>1</dim>
					<dim>1</dim>
				</port>
			</input>
			<output>
				<port id="2" precision="FP32" names="2865">
					<dim>1</dim>
					<dim>384</dim>
					<dim>45</dim>
					<dim>80</dim>
				</port>
			</output>
		</layer>
		<layer id="124" name="471" type="Clamp" version="opset1">
			<data min="0" max="6"/>
			<rt_info>
				<attribute name="fused_names" version="0" value="471, Maximum_2640"/>
			</rt_info>
			<input>
				<port id="0" precision="FP32">
					<dim>1</dim>
					<dim>384</dim>
					<dim>45</dim>
					<dim>80</dim>
				</port>
			</input>
			<output>
				<port id="1" precision="FP32" names="471">
					<dim>1</dim>
					<dim>384</dim>
					<dim>45</dim>
					<dim>80</dim>
				</port>
			</output>
		</layer>
		<layer id="125" name="2869" type="Const" version="opset1">
			<data element_type="f32" shape="64, 384, 1, 1" offset="425244" size="98304"/>
			<rt_info>
				<attribute name="fused_names" version="0" value="2869"/>
			</rt_info>
			<output>
				<port id="0" precision="FP32" names="2869">
					<dim>64</dim>
					<dim>384</dim>
					<dim>1</dim>
					<dim>1</dim>
				</port>
			</output>
		</layer>
		<layer id="126" name="Convolution_2642" type="Convolution" version="opset1">
			<data strides="1, 1" dilations="1, 1" pads_begin="0, 0" pads_end="0, 0" auto_pad="explicit"/>
			<rt_info>
				<attribute name="fused_names" version="0" value="Convolution_2642"/>
			</rt_info>
			<input>
				<port id="0" precision="FP32">
					<dim>1</dim>
					<dim>384</dim>
					<dim>45</dim>
					<dim>80</dim>
				</port>
				<port id="1" precision="FP32">
					<dim>64</dim>
					<dim>384</dim>
					<dim>1</dim>
					<dim>1</dim>
				</port>
			</input>
			<output>
				<port id="2" precision="FP32">
					<dim>1</dim>
					<dim>64</dim>
					<dim>45</dim>
					<dim>80</dim>
				</port>
			</output>
		</layer>
		<layer id="127" name="Reshape_2662" type="Const" version="opset1">
			<data element_type="f32" shape="1, 64, 1, 1" offset="523548" size="256"/>
			<output>
				<port id="0" precision="FP32">
					<dim>1</dim>
					<dim>64</dim>
					<dim>1</dim>
					<dim>1</dim>
				</port>
			</output>
		</layer>
		<layer id="128" name="2868" type="Add" version="opset1">
			<data auto_broadcast="numpy"/>
			<rt_info>
				<attribute name="fused_names" version="0" value="2868, Concat_2661, Reshape_2662"/>
			</rt_info>
			<input>
				<port id="0" precision="FP32">
					<dim>1</dim>
					<dim>64</dim>
					<dim>45</dim>
					<dim>80</dim>
				</port>
				<port id="1" precision="FP32">
					<dim>1</dim>
					<dim>64</dim>
					<dim>1</dim>
					<dim>1</dim>
				</port>
			</input>
			<output>
				<port id="2" precision="FP32" names="2868">
					<dim>1</dim>
					<dim>64</dim>
					<dim>45</dim>
					<dim>80</dim>
				</port>
			</output>
		</layer>
		<layer id="129" name="474" type="Add" version="opset1">
			<data auto_broadcast="numpy"/>
			<rt_info>
				<attribute name="fused_names" version="0" value="474"/>
			</rt_info>
			<input>
				<port id="0" precision="FP32">
					<dim>1</dim>
					<dim>64</dim>
					<dim>45</dim>
					<dim>80</dim>
				</port>
				<port id="1" precision="FP32">
					<dim>1</dim>
					<dim>64</dim>
					<dim>45</dim>
					<dim>80</dim>
				</port>
			</input>
			<output>
				<port id="2" precision="FP32" names="474">
					<dim>1</dim>
					<dim>64</dim>
					<dim>45</dim>
					<dim>80</dim>
				</port>
			</output>
		</layer>
		<layer id="130" name="2872" type="Const" version="opset1">
			<data element_type="f32" shape="384, 64, 1, 1" offset="523804" size="98304"/>
			<rt_info>
				<attribute name="fused_names" version="0" value="2872"/>
			</rt_info>
			<output>
				<port id="0" precision="FP32" names="2872">
					<dim>384</dim>
					<dim>64</dim>
					<dim>1</dim>
					<dim>1</dim>
				</port>
			</output>
		</layer>
		<layer id="131" name="Convolution_2691" type="Convolution" version="opset1">
			<data strides="1, 1" dilations="1, 1" pads_begin="0, 0" pads_end="0, 0" auto_pad="explicit"/>
			<rt_info>
				<attribute name="fused_names" version="0" value="Convolution_2691"/>
			</rt_info>
			<input>
				<port id="0" precision="FP32">
					<dim>1</dim>
					<dim>64</dim>
					<dim>45</dim>
					<dim>80</dim>
				</port>
				<port id="1" precision="FP32">
					<dim>384</dim>
					<dim>64</dim>
					<dim>1</dim>
					<dim>1</dim>
				</port>
			</input>
			<output>
				<port id="2" precision="FP32">
					<dim>1</dim>
					<dim>384</dim>
					<dim>45</dim>
					<dim>80</dim>
				</port>
			</output>
		</layer>
		<layer id="132" name="Reshape_2711" type="Const" version="opset1">
			<data element_type="f32" shape="1, 384, 1, 1" offset="622108" size="1536"/>
			<output>
				<port id="0" precision="FP32">
					<dim>1</dim>
					<dim>384</dim>
					<dim>1</dim>
					<dim>1</dim>
				</port>
			</output>
		</layer>
		<layer id="133" name="2871" type="Add" version="opset1">
			<data auto_broadcast="numpy"/>
			<rt_info>
				<attribute name="fused_names" version="0" value="2871, Concat_2710, Reshape_2711"/>
			</rt_info>
			<input>
				<port id="0" precision="FP32">
					<dim>1</dim>
					<dim>384</dim>
					<dim>45</dim>
					<dim>80</dim>
				</port>
				<port id="1" precision="FP32">
					<dim>1</dim>
					<dim>384</dim>
					<dim>1</dim>
					<dim>1</dim>
				</port>
			</input>
			<output>
				<port id="2" precision="FP32" names="2871">
					<dim>1</dim>
					<dim>384</dim>
					<dim>45</dim>
					<dim>80</dim>
				</port>
			</output>
		</layer>
		<layer id="134" name="479" type="Clamp" version="opset1">
			<data min="0" max="6"/>
			<rt_info>
				<attribute name="fused_names" version="0" value="479, Maximum_2739"/>
			</rt_info>
			<input>
				<port id="0" precision="FP32">
					<dim>1</dim>
					<dim>384</dim>
					<dim>45</dim>
					<dim>80</dim>
				</port>
			</input>
			<output>
				<port id="1" precision="FP32" names="479">
					<dim>1</dim>
					<dim>384</dim>
					<dim>45</dim>
					<dim>80</dim>
				</port>
			</output>
		</layer>
		<layer id="135" name="Reshape_2748" type="Const" version="opset1">
			<data element_type="f32" shape="384, 1, 1, 3, 3" offset="623644" size="13824"/>
			<output>
				<port id="0" precision="FP32">
					<dim>384</dim>
					<dim>1</dim>
					<dim>1</dim>
					<dim>3</dim>
					<dim>3</dim>
				</port>
			</output>
		</layer>
		<layer id="136" name="GroupConvolution_2814" type="GroupConvolution" version="opset1">
			<data strides="1, 1" pads_begin="1, 1" pads_end="1, 1" dilations="1, 1" auto_pad="explicit"/>
			<rt_info>
				<attribute name="fused_names" version="0" value="GroupConvolution_2814, Reshape_2748"/>
			</rt_info>
			<input>
				<port id="0" precision="FP32">
					<dim>1</dim>
					<dim>384</dim>
					<dim>45</dim>
					<dim>80</dim>
				</port>
				<port id="1" precision="FP32">
					<dim>384</dim>
					<dim>1</dim>
					<dim>1</dim>
					<dim>3</dim>
					<dim>3</dim>
				</port>
			</input>
			<output>
				<port id="2" precision="FP32">
					<dim>1</dim>
					<dim>384</dim>
					<dim>45</dim>
					<dim>80</dim>
				</port>
			</output>
		</layer>
		<layer id="137" name="Reshape_2834" type="Const" version="opset1">
			<data element_type="f32" shape="1, 384, 1, 1" offset="637468" size="1536"/>
			<output>
				<port id="0" precision="FP32">
					<dim>1</dim>
					<dim>384</dim>
					<dim>1</dim>
					<dim>1</dim>
				</port>
			</output>
		</layer>
		<layer id="138" name="2874" type="Add" version="opset1">
			<data auto_broadcast="numpy"/>
			<rt_info>
				<attribute name="fused_names" version="0" value="2874, Concat_2833, Reshape_2834"/>
			</rt_info>
			<input>
				<port id="0" precision="FP32">
					<dim>1</dim>
					<dim>384</dim>
					<dim>45</dim>
					<dim>80</dim>
				</port>
				<port id="1" precision="FP32">
					<dim>1</dim>
					<dim>384</dim>
					<dim>1</dim>
					<dim>1</dim>
				</port>
			</input>
			<output>
				<port id="2" precision="FP32" names="2874">
					<dim>1</dim>
					<dim>384</dim>
					<dim>45</dim>
					<dim>80</dim>
				</port>
			</output>
		</layer>
		<layer id="139" name="484" type="Clamp" version="opset1">
			<data min="0" max="6"/>
			<rt_info>
				<attribute name="fused_names" version="0" value="484, Maximum_2862"/>
			</rt_info>
			<input>
				<port id="0" precision="FP32">
					<dim>1</dim>
					<dim>384</dim>
					<dim>45</dim>
					<dim>80</dim>
				</port>
			</input>
			<output>
				<port id="1" precision="FP32" names="484">
					<dim>1</dim>
					<dim>384</dim>
					<dim>45</dim>
					<dim>80</dim>
				</port>
			</output>
		</layer>
		<layer id="140" name="2878" type="Const" version="opset1">
			<data element_type="f32" shape="64, 384, 1, 1" offset="639004" size="98304"/>
			<rt_info>
				<attribute name="fused_names" version="0" value="2878"/>
			</rt_info>
			<output>
				<port id="0" precision="FP32" names="2878">
					<dim>64</dim>
					<dim>384</dim>
					<dim>1</dim>
					<dim>1</dim>
				</port>
			</output>
		</layer>
		<layer id="141" name="Convolution_2864" type="Convolution" version="opset1">
			<data strides="1, 1" dilations="1, 1" pads_begin="0, 0" pads_end="0, 0" auto_pad="explicit"/>
			<rt_info>
				<attribute name="fused_names" version="0" value="Convolution_2864"/>
			</rt_info>
			<input>
				<port id="0" precision="FP32">
					<dim>1</dim>
					<dim>384</dim>
					<dim>45</dim>
					<dim>80</dim>
				</port>
				<port id="1" precision="FP32">
					<dim>64</dim>
					<dim>384</dim>
					<dim>1</dim>
					<dim>1</dim>
				</port>
			</input>
			<output>
				<port id="2" precision="FP32">
					<dim>1</dim>
					<dim>64</dim>
					<dim>45</dim>
					<dim>80</dim>
				</port>
			</output>
		</layer>
		<layer id="142" name="Reshape_2884" type="Const" version="opset1">
			<data element_type="f32" shape="1, 64, 1, 1" offset="737308" size="256"/>
			<output>
				<port id="0" precision="FP32">
					<dim>1</dim>
					<dim>64</dim>
					<dim>1</dim>
					<dim>1</dim>
				</port>
			</output>
		</layer>
		<layer id="143" name="2877" type="Add" version="opset1">
			<data auto_broadcast="numpy"/>
			<rt_info>
				<attribute name="fused_names" version="0" value="2877, Concat_2883, Reshape_2884"/>
			</rt_info>
			<input>
				<port id="0" precision="FP32">
					<dim>1</dim>
					<dim>64</dim>
					<dim>45</dim>
					<dim>80</dim>
				</port>
				<port id="1" precision="FP32">
					<dim>1</dim>
					<dim>64</dim>
					<dim>1</dim>
					<dim>1</dim>
				</port>
			</input>
			<output>
				<port id="2" precision="FP32" names="2877">
					<dim>1</dim>
					<dim>64</dim>
					<dim>45</dim>
					<dim>80</dim>
				</port>
			</output>
		</layer>
		<layer id="144" name="487" type="Add" version="opset1">
			<data auto_broadcast="numpy"/>
			<rt_info>
				<attribute name="fused_names" version="0" value="487"/>
			</rt_info>
			<input>
				<port id="0" precision="FP32">
					<dim>1</dim>
					<dim>64</dim>
					<dim>45</dim>
					<dim>80</dim>
				</port>
				<port id="1" precision="FP32">
					<dim>1</dim>
					<dim>64</dim>
					<dim>45</dim>
					<dim>80</dim>
				</port>
			</input>
			<output>
				<port id="2" precision="FP32" names="487">
					<dim>1</dim>
					<dim>64</dim>
					<dim>45</dim>
					<dim>80</dim>
				</port>
			</output>
		</layer>
		<layer id="145" name="2881" type="Const" version="opset1">
			<data element_type="f32" shape="384, 64, 1, 1" offset="737564" size="98304"/>
			<rt_info>
				<attribute name="fused_names" version="0" value="2881"/>
			</rt_info>
			<output>
				<port id="0" precision="FP32" names="2881">
					<dim>384</dim>
					<dim>64</dim>
					<dim>1</dim>
					<dim>1</dim>
				</port>
			</output>
		</layer>
		<layer id="146" name="Convolution_2913" type="Convolution" version="opset1">
			<data strides="1, 1" dilations="1, 1" pads_begin="0, 0" pads_end="0, 0" auto_pad="explicit"/>
			<rt_info>
				<attribute name="fused_names" version="0" value="Convolution_2913"/>
			</rt_info>
			<input>
				<port id="0" precision="FP32">
					<dim>1</dim>
					<dim>64</dim>
					<dim>45</dim>
					<dim>80</dim>
				</port>
				<port id="1" precision="FP32">
					<dim>384</dim>
					<dim>64</dim>
					<dim>1</dim>
					<dim>1</dim>
				</port>
			</input>
			<output>
				<port id="2" precision="FP32">
					<dim>1</dim>
					<dim>384</dim>
					<dim>45</dim>
					<dim>80</dim>
				</port>
			</output>
		</layer>
		<layer id="147" name="Reshape_2933" type="Const" version="opset1">
			<data element_type="f32" shape="1, 384, 1, 1" offset="835868" size="1536"/>
			<output>
				<port id="0" precision="FP32">
					<dim>1</dim>
					<dim>384</dim>
					<dim>1</dim>
					<dim>1</dim>
				</port>
			</output>
		</layer>
		<layer id="148" name="2880" type="Add" version="opset1">
			<data auto_broadcast="numpy"/>
			<rt_info>
				<attribute name="fused_names" version="0" value="2880, Concat_2932, Reshape_2933"/>
			</rt_info>
			<input>
				<port id="0" precision="FP32">
					<dim>1</dim>
					<dim>384</dim>
					<dim>45</dim>
					<dim>80</dim>
				</port>
				<port id="1" precision="FP32">
					<dim>1</dim>
					<dim>384</dim>
					<dim>1</dim>
					<dim>1</dim>
				</port>
			</input>
			<output>
				<port id="2" precision="FP32" names="2880">
					<dim>1</dim>
					<dim>384</dim>
					<dim>45</dim>
					<dim>80</dim>
				</port>
			</output>
		</layer>
		<layer id="149" name="492" type="Clamp" version="opset1">
			<data min="0" max="6"/>
			<rt_info>
				<attribute name="fused_names" version="0" value="492, Maximum_2961"/>
			</rt_info>
			<input>
				<port id="0" precision="FP32">
					<dim>1</dim>
					<dim>384</dim>
					<dim>45</dim>
					<dim>80</dim>
				</port>
			</input>
			<output>
				<port id="1" precision="FP32" names="492">
					<dim>1</dim>
					<dim>384</dim>
					<dim>45</dim>
					<dim>80</dim>
				</port>
			</output>
		</layer>
		<layer id="150" name="Reshape_2970" type="Const" version="opset1">
			<data element_type="f32" shape="384, 1, 1, 3, 3" offset="837404" size="13824"/>
			<output>
				<port id="0" precision="FP32">
					<dim>384</dim>
					<dim>1</dim>
					<dim>1</dim>
					<dim>3</dim>
					<dim>3</dim>
				</port>
			</output>
		</layer>
		<layer id="151" name="GroupConvolution_3036" type="GroupConvolution" version="opset1">
			<data strides="1, 1" pads_begin="1, 1" pads_end="1, 1" dilations="1, 1" auto_pad="explicit"/>
			<rt_info>
				<attribute name="fused_names" version="0" value="GroupConvolution_3036, Reshape_2970"/>
			</rt_info>
			<input>
				<port id="0" precision="FP32">
					<dim>1</dim>
					<dim>384</dim>
					<dim>45</dim>
					<dim>80</dim>
				</port>
				<port id="1" precision="FP32">
					<dim>384</dim>
					<dim>1</dim>
					<dim>1</dim>
					<dim>3</dim>
					<dim>3</dim>
				</port>
			</input>
			<output>
				<port id="2" precision="FP32">
					<dim>1</dim>
					<dim>384</dim>
					<dim>45</dim>
					<dim>80</dim>
				</port>
			</output>
		</layer>
		<layer id="152" name="Reshape_3056" type="Const" version="opset1">
			<data element_type="f32" shape="1, 384, 1, 1" offset="851228" size="1536"/>
			<output>
				<port id="0" precision="FP32">
					<dim>1</dim>
					<dim>384</dim>
					<dim>1</dim>
					<dim>1</dim>
				</port>
			</output>
		</layer>
		<layer id="153" name="2883" type="Add" version="opset1">
			<data auto_broadcast="numpy"/>
			<rt_info>
				<attribute name="fused_names" version="0" value="2883, Concat_3055, Reshape_3056"/>
			</rt_info>
			<input>
				<port id="0" precision="FP32">
					<dim>1</dim>
					<dim>384</dim>
					<dim>45</dim>
					<dim>80</dim>
				</port>
				<port id="1" precision="FP32">
					<dim>1</dim>
					<dim>384</dim>
					<dim>1</dim>
					<dim>1</dim>
				</port>
			</input>
			<output>
				<port id="2" precision="FP32" names="2883">
					<dim>1</dim>
					<dim>384</dim>
					<dim>45</dim>
					<dim>80</dim>
				</port>
			</output>
		</layer>
		<layer id="154" name="497" type="Clamp" version="opset1">
			<data min="0" max="6"/>
			<rt_info>
				<attribute name="fused_names" version="0" value="497, Maximum_3084"/>
			</rt_info>
			<input>
				<port id="0" precision="FP32">
					<dim>1</dim>
					<dim>384</dim>
					<dim>45</dim>
					<dim>80</dim>
				</port>
			</input>
			<output>
				<port id="1" precision="FP32" names="497">
					<dim>1</dim>
					<dim>384</dim>
					<dim>45</dim>
					<dim>80</dim>
				</port>
			</output>
		</layer>
		<layer id="155" name="2887" type="Const" version="opset1">
			<data element_type="f32" shape="64, 384, 1, 1" offset="852764" size="98304"/>
			<rt_info>
				<attribute name="fused_names" version="0" value="2887"/>
			</rt_info>
			<output>
				<port id="0" precision="FP32" names="2887">
					<dim>64</dim>
					<dim>384</dim>
					<dim>1</dim>
					<dim>1</dim>
				</port>
			</output>
		</layer>
		<layer id="156" name="Convolution_3086" type="Convolution" version="opset1">
			<data strides="1, 1" dilations="1, 1" pads_begin="0, 0" pads_end="0, 0" auto_pad="explicit"/>
			<rt_info>
				<attribute name="fused_names" version="0" value="Convolution_3086"/>
			</rt_info>
			<input>
				<port id="0" precision="FP32">
					<dim>1</dim>
					<dim>384</dim>
					<dim>45</dim>
					<dim>80</dim>
				</port>
				<port id="1" precision="FP32">
					<dim>64</dim>
					<dim>384</dim>
					<dim>1</dim>
					<dim>1</dim>
				</port>
			</input>
			<output>
				<port id="2" precision="FP32">
					<dim>1</dim>
					<dim>64</dim>
					<dim>45</dim>
					<dim>80</dim>
				</port>
			</output>
		</layer>
		<layer id="157" name="Reshape_3106" type="Const" version="opset1">
			<data element_type="f32" shape="1, 64, 1, 1" offset="951068" size="256"/>
			<output>
				<port id="0" precision="FP32">
					<dim>1</dim>
					<dim>64</dim>
					<dim>1</dim>
					<dim>1</dim>
				</port>
			</output>
		</layer>
		<layer id="158" name="2886" type="Add" version="opset1">
			<data auto_broadcast="numpy"/>
			<rt_info>
				<attribute name="fused_names" version="0" value="2886, Concat_3105, Reshape_3106"/>
			</rt_info>
			<input>
				<port id="0" precision="FP32">
					<dim>1</dim>
					<dim>64</dim>
					<dim>45</dim>
					<dim>80</dim>
				</port>
				<port id="1" precision="FP32">
					<dim>1</dim>
					<dim>64</dim>
					<dim>1</dim>
					<dim>1</dim>
				</port>
			</input>
			<output>
				<port id="2" precision="FP32" names="2886">
					<dim>1</dim>
					<dim>64</dim>
					<dim>45</dim>
					<dim>80</dim>
				</port>
			</output>
		</layer>
		<layer id="159" name="500" type="Add" version="opset1">
			<data auto_broadcast="numpy"/>
			<rt_info>
				<attribute name="fused_names" version="0" value="500"/>
			</rt_info>
			<input>
				<port id="0" precision="FP32">
					<dim>1</dim>
					<dim>64</dim>
					<dim>45</dim>
					<dim>80</dim>
				</port>
				<port id="1" precision="FP32">
					<dim>1</dim>
					<dim>64</dim>
					<dim>45</dim>
					<dim>80</dim>
				</port>
			</input>
			<output>
				<port id="2" precision="FP32" names="500">
					<dim>1</dim>
					<dim>64</dim>
					<dim>45</dim>
					<dim>80</dim>
				</port>
			</output>
		</layer>
		<layer id="160" name="2890" type="Const" version="opset1">
			<data element_type="f32" shape="384, 64, 1, 1" offset="951324" size="98304"/>
			<rt_info>
				<attribute name="fused_names" version="0" value="2890"/>
			</rt_info>
			<output>
				<port id="0" precision="FP32" names="2890">
					<dim>384</dim>
					<dim>64</dim>
					<dim>1</dim>
					<dim>1</dim>
				</port>
			</output>
		</layer>
		<layer id="161" name="Convolution_3135" type="Convolution" version="opset1">
			<data strides="1, 1" dilations="1, 1" pads_begin="0, 0" pads_end="0, 0" auto_pad="explicit"/>
			<rt_info>
				<attribute name="fused_names" version="0" value="Convolution_3135"/>
			</rt_info>
			<input>
				<port id="0" precision="FP32">
					<dim>1</dim>
					<dim>64</dim>
					<dim>45</dim>
					<dim>80</dim>
				</port>
				<port id="1" precision="FP32">
					<dim>384</dim>
					<dim>64</dim>
					<dim>1</dim>
					<dim>1</dim>
				</port>
			</input>
			<output>
				<port id="2" precision="FP32">
					<dim>1</dim>
					<dim>384</dim>
					<dim>45</dim>
					<dim>80</dim>
				</port>
			</output>
		</layer>
		<layer id="162" name="Reshape_3155" type="Const" version="opset1">
			<data element_type="f32" shape="1, 384, 1, 1" offset="1049628" size="1536"/>
			<output>
				<port id="0" precision="FP32">
					<dim>1</dim>
					<dim>384</dim>
					<dim>1</dim>
					<dim>1</dim>
				</port>
			</output>
		</layer>
		<layer id="163" name="2889" type="Add" version="opset1">
			<data auto_broadcast="numpy"/>
			<rt_info>
				<attribute name="fused_names" version="0" value="2889, Concat_3154, Reshape_3155"/>
			</rt_info>
			<input>
				<port id="0" precision="FP32">
					<dim>1</dim>
					<dim>384</dim>
					<dim>45</dim>
					<dim>80</dim>
				</port>
				<port id="1" precision="FP32">
					<dim>1</dim>
					<dim>384</dim>
					<dim>1</dim>
					<dim>1</dim>
				</port>
			</input>
			<output>
				<port id="2" precision="FP32" names="2889">
					<dim>1</dim>
					<dim>384</dim>
					<dim>45</dim>
					<dim>80</dim>
				</port>
			</output>
		</layer>
		<layer id="164" name="505" type="Clamp" version="opset1">
			<data min="0" max="6"/>
			<rt_info>
				<attribute name="fused_names" version="0" value="505, Maximum_3183"/>
			</rt_info>
			<input>
				<port id="0" precision="FP32">
					<dim>1</dim>
					<dim>384</dim>
					<dim>45</dim>
					<dim>80</dim>
				</port>
			</input>
			<output>
				<port id="1" precision="FP32" names="505">
					<dim>1</dim>
					<dim>384</dim>
					<dim>45</dim>
					<dim>80</dim>
				</port>
			</output>
		</layer>
		<layer id="165" name="Reshape_3192" type="Const" version="opset1">
			<data element_type="f32" shape="384, 1, 1, 3, 3" offset="1051164" size="13824"/>
			<output>
				<port id="0" precision="FP32">
					<dim>384</dim>
					<dim>1</dim>
					<dim>1</dim>
					<dim>3</dim>
					<dim>3</dim>
				</port>
			</output>
		</layer>
		<layer id="166" name="GroupConvolution_3258" type="GroupConvolution" version="opset1">
			<data strides="1, 1" pads_begin="1, 1" pads_end="1, 1" dilations="1, 1" auto_pad="explicit"/>
			<rt_info>
				<attribute name="fused_names" version="0" value="GroupConvolution_3258, Reshape_3192"/>
			</rt_info>
			<input>
				<port id="0" precision="FP32">
					<dim>1</dim>
					<dim>384</dim>
					<dim>45</dim>
					<dim>80</dim>
				</port>
				<port id="1" precision="FP32">
					<dim>384</dim>
					<dim>1</dim>
					<dim>1</dim>
					<dim>3</dim>
					<dim>3</dim>
				</port>
			</input>
			<output>
				<port id="2" precision="FP32">
					<dim>1</dim>
					<dim>384</dim>
					<dim>45</dim>
					<dim>80</dim>
				</port>
			</output>
		</layer>
		<layer id="167" name="Reshape_3278" type="Const" version="opset1">
			<data element_type="f32" shape="1, 384, 1, 1" offset="1064988" size="1536"/>
			<output>
				<port id="0" precision="FP32">
					<dim>1</dim>
					<dim>384</dim>
					<dim>1</dim>
					<dim>1</dim>
				</port>
			</output>
		</layer>
		<layer id="168" name="2892" type="Add" version="opset1">
			<data auto_broadcast="numpy"/>
			<rt_info>
				<attribute name="fused_names" version="0" value="2892, Concat_3277, Reshape_3278"/>
			</rt_info>
			<input>
				<port id="0" precision="FP32">
					<dim>1</dim>
					<dim>384</dim>
					<dim>45</dim>
					<dim>80</dim>
				</port>
				<port id="1" precision="FP32">
					<dim>1</dim>
					<dim>384</dim>
					<dim>1</dim>
					<dim>1</dim>
				</port>
			</input>
			<output>
				<port id="2" precision="FP32" names="2892">
					<dim>1</dim>
					<dim>384</dim>
					<dim>45</dim>
					<dim>80</dim>
				</port>
			</output>
		</layer>
		<layer id="169" name="510" type="Clamp" version="opset1">
			<data min="0" max="6"/>
			<rt_info>
				<attribute name="fused_names" version="0" value="510, Maximum_3306"/>
			</rt_info>
			<input>
				<port id="0" precision="FP32">
					<dim>1</dim>
					<dim>384</dim>
					<dim>45</dim>
					<dim>80</dim>
				</port>
			</input>
			<output>
				<port id="1" precision="FP32" names="510">
					<dim>1</dim>
					<dim>384</dim>
					<dim>45</dim>
					<dim>80</dim>
				</port>
			</output>
		</layer>
		<layer id="170" name="2896" type="Const" version="opset1">
			<data element_type="f32" shape="96, 384, 1, 1" offset="1066524" size="147456"/>
			<rt_info>
				<attribute name="fused_names" version="0" value="2896"/>
			</rt_info>
			<output>
				<port id="0" precision="FP32" names="2896">
					<dim>96</dim>
					<dim>384</dim>
					<dim>1</dim>
					<dim>1</dim>
				</port>
			</output>
		</layer>
		<layer id="171" name="Convolution_3308" type="Convolution" version="opset1">
			<data strides="1, 1" dilations="1, 1" pads_begin="0, 0" pads_end="0, 0" auto_pad="explicit"/>
			<rt_info>
				<attribute name="fused_names" version="0" value="Convolution_3308"/>
			</rt_info>
			<input>
				<port id="0" precision="FP32">
					<dim>1</dim>
					<dim>384</dim>
					<dim>45</dim>
					<dim>80</dim>
				</port>
				<port id="1" precision="FP32">
					<dim>96</dim>
					<dim>384</dim>
					<dim>1</dim>
					<dim>1</dim>
				</port>
			</input>
			<output>
				<port id="2" precision="FP32">
					<dim>1</dim>
					<dim>96</dim>
					<dim>45</dim>
					<dim>80</dim>
				</port>
			</output>
		</layer>
		<layer id="172" name="Reshape_3328" type="Const" version="opset1">
			<data element_type="f32" shape="1, 96, 1, 1" offset="1213980" size="384"/>
			<output>
				<port id="0" precision="FP32">
					<dim>1</dim>
					<dim>96</dim>
					<dim>1</dim>
					<dim>1</dim>
				</port>
			</output>
		</layer>
		<layer id="173" name="2895" type="Add" version="opset1">
			<data auto_broadcast="numpy"/>
			<rt_info>
				<attribute name="fused_names" version="0" value="2895, Concat_3327, Reshape_3328"/>
			</rt_info>
			<input>
				<port id="0" precision="FP32">
					<dim>1</dim>
					<dim>96</dim>
					<dim>45</dim>
					<dim>80</dim>
				</port>
				<port id="1" precision="FP32">
					<dim>1</dim>
					<dim>96</dim>
					<dim>1</dim>
					<dim>1</dim>
				</port>
			</input>
			<output>
				<port id="2" precision="FP32" names="2895">
					<dim>1</dim>
					<dim>96</dim>
					<dim>45</dim>
					<dim>80</dim>
				</port>
			</output>
		</layer>
		<layer id="174" name="2899" type="Const" version="opset1">
			<data element_type="f32" shape="576, 96, 1, 1" offset="1214364" size="221184"/>
			<rt_info>
				<attribute name="fused_names" version="0" value="2899"/>
			</rt_info>
			<output>
				<port id="0" precision="FP32" names="2899">
					<dim>576</dim>
					<dim>96</dim>
					<dim>1</dim>
					<dim>1</dim>
				</port>
			</output>
		</layer>
		<layer id="175" name="Convolution_3356" type="Convolution" version="opset1">
			<data strides="1, 1" dilations="1, 1" pads_begin="0, 0" pads_end="0, 0" auto_pad="explicit"/>
			<rt_info>
				<attribute name="fused_names" version="0" value="Convolution_3356"/>
			</rt_info>
			<input>
				<port id="0" precision="FP32">
					<dim>1</dim>
					<dim>96</dim>
					<dim>45</dim>
					<dim>80</dim>
				</port>
				<port id="1" precision="FP32">
					<dim>576</dim>
					<dim>96</dim>
					<dim>1</dim>
					<dim>1</dim>
				</port>
			</input>
			<output>
				<port id="2" precision="FP32">
					<dim>1</dim>
					<dim>576</dim>
					<dim>45</dim>
					<dim>80</dim>
				</port>
			</output>
		</layer>
		<layer id="176" name="Reshape_3376" type="Const" version="opset1">
			<data element_type="f32" shape="1, 576, 1, 1" offset="1435548" size="2304"/>
			<output>
				<port id="0" precision="FP32">
					<dim>1</dim>
					<dim>576</dim>
					<dim>1</dim>
					<dim>1</dim>
				</port>
			</output>
		</layer>
		<layer id="177" name="2898" type="Add" version="opset1">
			<data auto_broadcast="numpy"/>
			<rt_info>
				<attribute name="fused_names" version="0" value="2898, Concat_3375, Reshape_3376"/>
			</rt_info>
			<input>
				<port id="0" precision="FP32">
					<dim>1</dim>
					<dim>576</dim>
					<dim>45</dim>
					<dim>80</dim>
				</port>
				<port id="1" precision="FP32">
					<dim>1</dim>
					<dim>576</dim>
					<dim>1</dim>
					<dim>1</dim>
				</port>
			</input>
			<output>
				<port id="2" precision="FP32" names="2898">
					<dim>1</dim>
					<dim>576</dim>
					<dim>45</dim>
					<dim>80</dim>
				</port>
			</output>
		</layer>
		<layer id="178" name="517" type="Clamp" version="opset1">
			<data min="0" max="6"/>
			<rt_info>
				<attribute name="fused_names" version="0" value="517, Maximum_3404"/>
			</rt_info>
			<input>
				<port id="0" precision="FP32">
					<dim>1</dim>
					<dim>576</dim>
					<dim>45</dim>
					<dim>80</dim>
				</port>
			</input>
			<output>
				<port id="1" precision="FP32" names="517">
					<dim>1</dim>
					<dim>576</dim>
					<dim>45</dim>
					<dim>80</dim>
				</port>
			</output>
		</layer>
		<layer id="179" name="Reshape_3413" type="Const" version="opset1">
			<data element_type="f32" shape="576, 1, 1, 3, 3" offset="1437852" size="20736"/>
			<output>
				<port id="0" precision="FP32">
					<dim>576</dim>
					<dim>1</dim>
					<dim>1</dim>
					<dim>3</dim>
					<dim>3</dim>
				</port>
			</output>
		</layer>
		<layer id="180" name="GroupConvolution_3479" type="GroupConvolution" version="opset1">
			<data strides="1, 1" pads_begin="1, 1" pads_end="1, 1" dilations="1, 1" auto_pad="explicit"/>
			<rt_info>
				<attribute name="fused_names" version="0" value="GroupConvolution_3479, Reshape_3413"/>
			</rt_info>
			<input>
				<port id="0" precision="FP32">
					<dim>1</dim>
					<dim>576</dim>
					<dim>45</dim>
					<dim>80</dim>
				</port>
				<port id="1" precision="FP32">
					<dim>576</dim>
					<dim>1</dim>
					<dim>1</dim>
					<dim>3</dim>
					<dim>3</dim>
				</port>
			</input>
			<output>
				<port id="2" precision="FP32">
					<dim>1</dim>
					<dim>576</dim>
					<dim>45</dim>
					<dim>80</dim>
				</port>
			</output>
		</layer>
		<layer id="181" name="Reshape_3499" type="Const" version="opset1">
			<data element_type="f32" shape="1, 576, 1, 1" offset="1458588" size="2304"/>
			<output>
				<port id="0" precision="FP32">
					<dim>1</dim>
					<dim>576</dim>
					<dim>1</dim>
					<dim>1</dim>
				</port>
			</output>
		</layer>
		<layer id="182" name="2901" type="Add" version="opset1">
			<data auto_broadcast="numpy"/>
			<rt_info>
				<attribute name="fused_names" version="0" value="2901, Concat_3498, Reshape_3499"/>
			</rt_info>
			<input>
				<port id="0" precision="FP32">
					<dim>1</dim>
					<dim>576</dim>
					<dim>45</dim>
					<dim>80</dim>
				</port>
				<port id="1" precision="FP32">
					<dim>1</dim>
					<dim>576</dim>
					<dim>1</dim>
					<dim>1</dim>
				</port>
			</input>
			<output>
				<port id="2" precision="FP32" names="2901">
					<dim>1</dim>
					<dim>576</dim>
					<dim>45</dim>
					<dim>80</dim>
				</port>
			</output>
		</layer>
		<layer id="183" name="522" type="Clamp" version="opset1">
			<data min="0" max="6"/>
			<rt_info>
				<attribute name="fused_names" version="0" value="522, Maximum_3527"/>
			</rt_info>
			<input>
				<port id="0" precision="FP32">
					<dim>1</dim>
					<dim>576</dim>
					<dim>45</dim>
					<dim>80</dim>
				</port>
			</input>
			<output>
				<port id="1" precision="FP32" names="522">
					<dim>1</dim>
					<dim>576</dim>
					<dim>45</dim>
					<dim>80</dim>
				</port>
			</output>
		</layer>
		<layer id="184" name="2905" type="Const" version="opset1">
			<data element_type="f32" shape="96, 576, 1, 1" offset="1460892" size="221184"/>
			<rt_info>
				<attribute name="fused_names" version="0" value="2905"/>
			</rt_info>
			<output>
				<port id="0" precision="FP32" names="2905">
					<dim>96</dim>
					<dim>576</dim>
					<dim>1</dim>
					<dim>1</dim>
				</port>
			</output>
		</layer>
		<layer id="185" name="Convolution_3529" type="Convolution" version="opset1">
			<data strides="1, 1" dilations="1, 1" pads_begin="0, 0" pads_end="0, 0" auto_pad="explicit"/>
			<rt_info>
				<attribute name="fused_names" version="0" value="Convolution_3529"/>
			</rt_info>
			<input>
				<port id="0" precision="FP32">
					<dim>1</dim>
					<dim>576</dim>
					<dim>45</dim>
					<dim>80</dim>
				</port>
				<port id="1" precision="FP32">
					<dim>96</dim>
					<dim>576</dim>
					<dim>1</dim>
					<dim>1</dim>
				</port>
			</input>
			<output>
				<port id="2" precision="FP32">
					<dim>1</dim>
					<dim>96</dim>
					<dim>45</dim>
					<dim>80</dim>
				</port>
			</output>
		</layer>
		<layer id="186" name="Reshape_3549" type="Const" version="opset1">
			<data element_type="f32" shape="1, 96, 1, 1" offset="1682076" size="384"/>
			<output>
				<port id="0" precision="FP32">
					<dim>1</dim>
					<dim>96</dim>
					<dim>1</dim>
					<dim>1</dim>
				</port>
			</output>
		</layer>
		<layer id="187" name="2904" type="Add" version="opset1">
			<data auto_broadcast="numpy"/>
			<rt_info>
				<attribute name="fused_names" version="0" value="2904, Concat_3548, Reshape_3549"/>
			</rt_info>
			<input>
				<port id="0" precision="FP32">
					<dim>1</dim>
					<dim>96</dim>
					<dim>45</dim>
					<dim>80</dim>
				</port>
				<port id="1" precision="FP32">
					<dim>1</dim>
					<dim>96</dim>
					<dim>1</dim>
					<dim>1</dim>
				</port>
			</input>
			<output>
				<port id="2" precision="FP32" names="2904">
					<dim>1</dim>
					<dim>96</dim>
					<dim>45</dim>
					<dim>80</dim>
				</port>
			</output>
		</layer>
		<layer id="188" name="525" type="Add" version="opset1">
			<data auto_broadcast="numpy"/>
			<rt_info>
				<attribute name="fused_names" version="0" value="525"/>
			</rt_info>
			<input>
				<port id="0" precision="FP32">
					<dim>1</dim>
					<dim>96</dim>
					<dim>45</dim>
					<dim>80</dim>
				</port>
				<port id="1" precision="FP32">
					<dim>1</dim>
					<dim>96</dim>
					<dim>45</dim>
					<dim>80</dim>
				</port>
			</input>
			<output>
				<port id="2" precision="FP32" names="525">
					<dim>1</dim>
					<dim>96</dim>
					<dim>45</dim>
					<dim>80</dim>
				</port>
			</output>
		</layer>
		<layer id="189" name="2908" type="Const" version="opset1">
			<data element_type="f32" shape="576, 96, 1, 1" offset="1682460" size="221184"/>
			<rt_info>
				<attribute name="fused_names" version="0" value="2908"/>
			</rt_info>
			<output>
				<port id="0" precision="FP32" names="2908">
					<dim>576</dim>
					<dim>96</dim>
					<dim>1</dim>
					<dim>1</dim>
				</port>
			</output>
		</layer>
		<layer id="190" name="Convolution_3578" type="Convolution" version="opset1">
			<data strides="1, 1" dilations="1, 1" pads_begin="0, 0" pads_end="0, 0" auto_pad="explicit"/>
			<rt_info>
				<attribute name="fused_names" version="0" value="Convolution_3578"/>
			</rt_info>
			<input>
				<port id="0" precision="FP32">
					<dim>1</dim>
					<dim>96</dim>
					<dim>45</dim>
					<dim>80</dim>
				</port>
				<port id="1" precision="FP32">
					<dim>576</dim>
					<dim>96</dim>
					<dim>1</dim>
					<dim>1</dim>
				</port>
			</input>
			<output>
				<port id="2" precision="FP32">
					<dim>1</dim>
					<dim>576</dim>
					<dim>45</dim>
					<dim>80</dim>
				</port>
			</output>
		</layer>
		<layer id="191" name="Reshape_3598" type="Const" version="opset1">
			<data element_type="f32" shape="1, 576, 1, 1" offset="1903644" size="2304"/>
			<output>
				<port id="0" precision="FP32">
					<dim>1</dim>
					<dim>576</dim>
					<dim>1</dim>
					<dim>1</dim>
				</port>
			</output>
		</layer>
		<layer id="192" name="2907" type="Add" version="opset1">
			<data auto_broadcast="numpy"/>
			<rt_info>
				<attribute name="fused_names" version="0" value="2907, Concat_3597, Reshape_3598"/>
			</rt_info>
			<input>
				<port id="0" precision="FP32">
					<dim>1</dim>
					<dim>576</dim>
					<dim>45</dim>
					<dim>80</dim>
				</port>
				<port id="1" precision="FP32">
					<dim>1</dim>
					<dim>576</dim>
					<dim>1</dim>
					<dim>1</dim>
				</port>
			</input>
			<output>
				<port id="2" precision="FP32" names="2907">
					<dim>1</dim>
					<dim>576</dim>
					<dim>45</dim>
					<dim>80</dim>
				</port>
			</output>
		</layer>
		<layer id="193" name="530" type="Clamp" version="opset1">
			<data min="0" max="6"/>
			<rt_info>
				<attribute name="fused_names" version="0" value="530, Maximum_3626"/>
			</rt_info>
			<input>
				<port id="0" precision="FP32">
					<dim>1</dim>
					<dim>576</dim>
					<dim>45</dim>
					<dim>80</dim>
				</port>
			</input>
			<output>
				<port id="1" precision="FP32" names="530">
					<dim>1</dim>
					<dim>576</dim>
					<dim>45</dim>
					<dim>80</dim>
				</port>
			</output>
		</layer>
		<layer id="194" name="Reshape_3635" type="Const" version="opset1">
			<data element_type="f32" shape="576, 1, 1, 3, 3" offset="1905948" size="20736"/>
			<output>
				<port id="0" precision="FP32">
					<dim>576</dim>
					<dim>1</dim>
					<dim>1</dim>
					<dim>3</dim>
					<dim>3</dim>
				</port>
			</output>
		</layer>
		<layer id="195" name="GroupConvolution_3701" type="GroupConvolution" version="opset1">
			<data strides="1, 1" pads_begin="1, 1" pads_end="1, 1" dilations="1, 1" auto_pad="explicit"/>
			<rt_info>
				<attribute name="fused_names" version="0" value="GroupConvolution_3701, Reshape_3635"/>
			</rt_info>
			<input>
				<port id="0" precision="FP32">
					<dim>1</dim>
					<dim>576</dim>
					<dim>45</dim>
					<dim>80</dim>
				</port>
				<port id="1" precision="FP32">
					<dim>576</dim>
					<dim>1</dim>
					<dim>1</dim>
					<dim>3</dim>
					<dim>3</dim>
				</port>
			</input>
			<output>
				<port id="2" precision="FP32">
					<dim>1</dim>
					<dim>576</dim>
					<dim>45</dim>
					<dim>80</dim>
				</port>
			</output>
		</layer>
		<layer id="196" name="Reshape_3721" type="Const" version="opset1">
			<data element_type="f32" shape="1, 576, 1, 1" offset="1926684" size="2304"/>
			<output>
				<port id="0" precision="FP32">
					<dim>1</dim>
					<dim>576</dim>
					<dim>1</dim>
					<dim>1</dim>
				</port>
			</output>
		</layer>
		<layer id="197" name="2910" type="Add" version="opset1">
			<data auto_broadcast="numpy"/>
			<rt_info>
				<attribute name="fused_names" version="0" value="2910, Concat_3720, Reshape_3721"/>
			</rt_info>
			<input>
				<port id="0" precision="FP32">
					<dim>1</dim>
					<dim>576</dim>
					<dim>45</dim>
					<dim>80</dim>
				</port>
				<port id="1" precision="FP32">
					<dim>1</dim>
					<dim>576</dim>
					<dim>1</dim>
					<dim>1</dim>
				</port>
			</input>
			<output>
				<port id="2" precision="FP32" names="2910">
					<dim>1</dim>
					<dim>576</dim>
					<dim>45</dim>
					<dim>80</dim>
				</port>
			</output>
		</layer>
		<layer id="198" name="535" type="Clamp" version="opset1">
			<data min="0" max="6"/>
			<rt_info>
				<attribute name="fused_names" version="0" value="535, Maximum_3749"/>
			</rt_info>
			<input>
				<port id="0" precision="FP32">
					<dim>1</dim>
					<dim>576</dim>
					<dim>45</dim>
					<dim>80</dim>
				</port>
			</input>
			<output>
				<port id="1" precision="FP32" names="535">
					<dim>1</dim>
					<dim>576</dim>
					<dim>45</dim>
					<dim>80</dim>
				</port>
			</output>
		</layer>
		<layer id="199" name="2914" type="Const" version="opset1">
			<data element_type="f32" shape="96, 576, 1, 1" offset="1928988" size="221184"/>
			<rt_info>
				<attribute name="fused_names" version="0" value="2914"/>
			</rt_info>
			<output>
				<port id="0" precision="FP32" names="2914">
					<dim>96</dim>
					<dim>576</dim>
					<dim>1</dim>
					<dim>1</dim>
				</port>
			</output>
		</layer>
		<layer id="200" name="Convolution_3751" type="Convolution" version="opset1">
			<data strides="1, 1" dilations="1, 1" pads_begin="0, 0" pads_end="0, 0" auto_pad="explicit"/>
			<rt_info>
				<attribute name="fused_names" version="0" value="Convolution_3751"/>
			</rt_info>
			<input>
				<port id="0" precision="FP32">
					<dim>1</dim>
					<dim>576</dim>
					<dim>45</dim>
					<dim>80</dim>
				</port>
				<port id="1" precision="FP32">
					<dim>96</dim>
					<dim>576</dim>
					<dim>1</dim>
					<dim>1</dim>
				</port>
			</input>
			<output>
				<port id="2" precision="FP32">
					<dim>1</dim>
					<dim>96</dim>
					<dim>45</dim>
					<dim>80</dim>
				</port>
			</output>
		</layer>
		<layer id="201" name="Reshape_3771" type="Const" version="opset1">
			<data element_type="f32" shape="1, 96, 1, 1" offset="2150172" size="384"/>
			<output>
				<port id="0" precision="FP32">
					<dim>1</dim>
					<dim>96</dim>
					<dim>1</dim>
					<dim>1</dim>
				</port>
			</output>
		</layer>
		<layer id="202" name="2913" type="Add" version="opset1">
			<data auto_broadcast="numpy"/>
			<rt_info>
				<attribute name="fused_names" version="0" value="2913, Concat_3770, Reshape_3771"/>
			</rt_info>
			<input>
				<port id="0" precision="FP32">
					<dim>1</dim>
					<dim>96</dim>
					<dim>45</dim>
					<dim>80</dim>
				</port>
				<port id="1" precision="FP32">
					<dim>1</dim>
					<dim>96</dim>
					<dim>1</dim>
					<dim>1</dim>
				</port>
			</input>
			<output>
				<port id="2" precision="FP32" names="2913">
					<dim>1</dim>
					<dim>96</dim>
					<dim>45</dim>
					<dim>80</dim>
				</port>
			</output>
		</layer>
		<layer id="203" name="538" type="Add" version="opset1">
			<data auto_broadcast="numpy"/>
			<rt_info>
				<attribute name="fused_names" version="0" value="538"/>
			</rt_info>
			<input>
				<port id="0" precision="FP32">
					<dim>1</dim>
					<dim>96</dim>
					<dim>45</dim>
					<dim>80</dim>
				</port>
				<port id="1" precision="FP32">
					<dim>1</dim>
					<dim>96</dim>
					<dim>45</dim>
					<dim>80</dim>
				</port>
			</input>
			<output>
				<port id="2" precision="FP32" names="538">
					<dim>1</dim>
					<dim>96</dim>
					<dim>45</dim>
					<dim>80</dim>
				</port>
			</output>
		</layer>
		<layer id="204" name="neck.lateral_convs.1.conv.weight" type="Const" version="opset1">
			<data element_type="f32" shape="64, 96, 1, 1" offset="2150556" size="24576"/>
			<rt_info>
				<attribute name="fused_names" version="0" value="neck.lateral_convs.1.conv.weight"/>
			</rt_info>
			<output>
				<port id="0" precision="FP32" names="neck.lateral_convs.1.conv.weight">
					<dim>64</dim>
					<dim>96</dim>
					<dim>1</dim>
					<dim>1</dim>
				</port>
			</output>
		</layer>
		<layer id="205" name="Convolution_4734" type="Convolution" version="opset1">
			<data strides="1, 1" dilations="1, 1" pads_begin="0, 0" pads_end="0, 0" auto_pad="explicit"/>
			<rt_info>
				<attribute name="fused_names" version="0" value="Convolution_4734"/>
			</rt_info>
			<input>
				<port id="0" precision="FP32">
					<dim>1</dim>
					<dim>96</dim>
					<dim>45</dim>
					<dim>80</dim>
				</port>
				<port id="1" precision="FP32">
					<dim>64</dim>
					<dim>96</dim>
					<dim>1</dim>
					<dim>1</dim>
				</port>
			</input>
			<output>
				<port id="2" precision="FP32">
					<dim>1</dim>
					<dim>64</dim>
					<dim>45</dim>
					<dim>80</dim>
				</port>
			</output>
		</layer>
		<layer id="206" name="Reshape_4754" type="Const" version="opset1">
			<data element_type="f32" shape="1, 64, 1, 1" offset="2175132" size="256"/>
			<output>
				<port id="0" precision="FP32">
					<dim>1</dim>
					<dim>64</dim>
					<dim>1</dim>
					<dim>1</dim>
				</port>
			</output>
		</layer>
		<layer id="207" name="590" type="Add" version="opset1">
			<data auto_broadcast="numpy"/>
			<rt_info>
				<attribute name="fused_names" version="0" value="590, Concat_4753, Reshape_4754"/>
			</rt_info>
			<input>
				<port id="0" precision="FP32">
					<dim>1</dim>
					<dim>64</dim>
					<dim>45</dim>
					<dim>80</dim>
				</port>
				<port id="1" precision="FP32">
					<dim>1</dim>
					<dim>64</dim>
					<dim>1</dim>
					<dim>1</dim>
				</port>
			</input>
			<output>
				<port id="2" precision="FP32" names="590">
					<dim>1</dim>
					<dim>64</dim>
					<dim>45</dim>
					<dim>80</dim>
				</port>
			</output>
		</layer>
		<layer id="208" name="2917" type="Const" version="opset1">
			<data element_type="f32" shape="576, 96, 1, 1" offset="2175388" size="221184"/>
			<rt_info>
				<attribute name="fused_names" version="0" value="2917"/>
			</rt_info>
			<output>
				<port id="0" precision="FP32" names="2917">
					<dim>576</dim>
					<dim>96</dim>
					<dim>1</dim>
					<dim>1</dim>
				</port>
			</output>
		</layer>
		<layer id="209" name="Convolution_3800" type="Convolution" version="opset1">
			<data strides="1, 1" dilations="1, 1" pads_begin="0, 0" pads_end="0, 0" auto_pad="explicit"/>
			<rt_info>
				<attribute name="fused_names" version="0" value="Convolution_3800"/>
			</rt_info>
			<input>
				<port id="0" precision="FP32">
					<dim>1</dim>
					<dim>96</dim>
					<dim>45</dim>
					<dim>80</dim>
				</port>
				<port id="1" precision="FP32">
					<dim>576</dim>
					<dim>96</dim>
					<dim>1</dim>
					<dim>1</dim>
				</port>
			</input>
			<output>
				<port id="2" precision="FP32">
					<dim>1</dim>
					<dim>576</dim>
					<dim>45</dim>
					<dim>80</dim>
				</port>
			</output>
		</layer>
		<layer id="210" name="Reshape_3820" type="Const" version="opset1">
			<data element_type="f32" shape="1, 576, 1, 1" offset="2396572" size="2304"/>
			<output>
				<port id="0" precision="FP32">
					<dim>1</dim>
					<dim>576</dim>
					<dim>1</dim>
					<dim>1</dim>
				</port>
			</output>
		</layer>
		<layer id="211" name="2916" type="Add" version="opset1">
			<data auto_broadcast="numpy"/>
			<rt_info>
				<attribute name="fused_names" version="0" value="2916, Concat_3819, Reshape_3820"/>
			</rt_info>
			<input>
				<port id="0" precision="FP32">
					<dim>1</dim>
					<dim>576</dim>
					<dim>45</dim>
					<dim>80</dim>
				</port>
				<port id="1" precision="FP32">
					<dim>1</dim>
					<dim>576</dim>
					<dim>1</dim>
					<dim>1</dim>
				</port>
			</input>
			<output>
				<port id="2" precision="FP32" names="2916">
					<dim>1</dim>
					<dim>576</dim>
					<dim>45</dim>
					<dim>80</dim>
				</port>
			</output>
		</layer>
		<layer id="212" name="543" type="Clamp" version="opset1">
			<data min="0" max="6"/>
			<rt_info>
				<attribute name="fused_names" version="0" value="543, Maximum_3848"/>
			</rt_info>
			<input>
				<port id="0" precision="FP32">
					<dim>1</dim>
					<dim>576</dim>
					<dim>45</dim>
					<dim>80</dim>
				</port>
			</input>
			<output>
				<port id="1" precision="FP32" names="543">
					<dim>1</dim>
					<dim>576</dim>
					<dim>45</dim>
					<dim>80</dim>
				</port>
			</output>
		</layer>
		<layer id="213" name="Reshape_3857" type="Const" version="opset1">
			<data element_type="f32" shape="576, 1, 1, 3, 3" offset="2398876" size="20736"/>
			<output>
				<port id="0" precision="FP32">
					<dim>576</dim>
					<dim>1</dim>
					<dim>1</dim>
					<dim>3</dim>
					<dim>3</dim>
				</port>
			</output>
		</layer>
		<layer id="214" name="GroupConvolution_3923" type="GroupConvolution" version="opset1">
			<data strides="2, 2" pads_begin="1, 1" pads_end="1, 1" dilations="1, 1" auto_pad="explicit"/>
			<rt_info>
				<attribute name="fused_names" version="0" value="GroupConvolution_3923, Reshape_3857"/>
			</rt_info>
			<input>
				<port id="0" precision="FP32">
					<dim>1</dim>
					<dim>576</dim>
					<dim>45</dim>
					<dim>80</dim>
				</port>
				<port id="1" precision="FP32">
					<dim>576</dim>
					<dim>1</dim>
					<dim>1</dim>
					<dim>3</dim>
					<dim>3</dim>
				</port>
			</input>
			<output>
				<port id="2" precision="FP32">
					<dim>1</dim>
					<dim>576</dim>
					<dim>23</dim>
					<dim>40</dim>
				</port>
			</output>
		</layer>
		<layer id="215" name="Reshape_3943" type="Const" version="opset1">
			<data element_type="f32" shape="1, 576, 1, 1" offset="2419612" size="2304"/>
			<output>
				<port id="0" precision="FP32">
					<dim>1</dim>
					<dim>576</dim>
					<dim>1</dim>
					<dim>1</dim>
				</port>
			</output>
		</layer>
		<layer id="216" name="2919" type="Add" version="opset1">
			<data auto_broadcast="numpy"/>
			<rt_info>
				<attribute name="fused_names" version="0" value="2919, Concat_3942, Reshape_3943"/>
			</rt_info>
			<input>
				<port id="0" precision="FP32">
					<dim>1</dim>
					<dim>576</dim>
					<dim>23</dim>
					<dim>40</dim>
				</port>
				<port id="1" precision="FP32">
					<dim>1</dim>
					<dim>576</dim>
					<dim>1</dim>
					<dim>1</dim>
				</port>
			</input>
			<output>
				<port id="2" precision="FP32" names="2919">
					<dim>1</dim>
					<dim>576</dim>
					<dim>23</dim>
					<dim>40</dim>
				</port>
			</output>
		</layer>
		<layer id="217" name="548" type="Clamp" version="opset1">
			<data min="0" max="6"/>
			<rt_info>
				<attribute name="fused_names" version="0" value="548, Maximum_3971"/>
			</rt_info>
			<input>
				<port id="0" precision="FP32">
					<dim>1</dim>
					<dim>576</dim>
					<dim>23</dim>
					<dim>40</dim>
				</port>
			</input>
			<output>
				<port id="1" precision="FP32" names="548">
					<dim>1</dim>
					<dim>576</dim>
					<dim>23</dim>
					<dim>40</dim>
				</port>
			</output>
		</layer>
		<layer id="218" name="2923" type="Const" version="opset1">
			<data element_type="f32" shape="160, 576, 1, 1" offset="2421916" size="368640"/>
			<rt_info>
				<attribute name="fused_names" version="0" value="2923"/>
			</rt_info>
			<output>
				<port id="0" precision="FP32" names="2923">
					<dim>160</dim>
					<dim>576</dim>
					<dim>1</dim>
					<dim>1</dim>
				</port>
			</output>
		</layer>
		<layer id="219" name="Convolution_3973" type="Convolution" version="opset1">
			<data strides="1, 1" dilations="1, 1" pads_begin="0, 0" pads_end="0, 0" auto_pad="explicit"/>
			<rt_info>
				<attribute name="fused_names" version="0" value="Convolution_3973"/>
			</rt_info>
			<input>
				<port id="0" precision="FP32">
					<dim>1</dim>
					<dim>576</dim>
					<dim>23</dim>
					<dim>40</dim>
				</port>
				<port id="1" precision="FP32">
					<dim>160</dim>
					<dim>576</dim>
					<dim>1</dim>
					<dim>1</dim>
				</port>
			</input>
			<output>
				<port id="2" precision="FP32">
					<dim>1</dim>
					<dim>160</dim>
					<dim>23</dim>
					<dim>40</dim>
				</port>
			</output>
		</layer>
		<layer id="220" name="Reshape_3993" type="Const" version="opset1">
			<data element_type="f32" shape="1, 160, 1, 1" offset="2790556" size="640"/>
			<output>
				<port id="0" precision="FP32">
					<dim>1</dim>
					<dim>160</dim>
					<dim>1</dim>
					<dim>1</dim>
				</port>
			</output>
		</layer>
		<layer id="221" name="2922" type="Add" version="opset1">
			<data auto_broadcast="numpy"/>
			<rt_info>
				<attribute name="fused_names" version="0" value="2922, Concat_3992, Reshape_3993"/>
			</rt_info>
			<input>
				<port id="0" precision="FP32">
					<dim>1</dim>
					<dim>160</dim>
					<dim>23</dim>
					<dim>40</dim>
				</port>
				<port id="1" precision="FP32">
					<dim>1</dim>
					<dim>160</dim>
					<dim>1</dim>
					<dim>1</dim>
				</port>
			</input>
			<output>
				<port id="2" precision="FP32" names="2922">
					<dim>1</dim>
					<dim>160</dim>
					<dim>23</dim>
					<dim>40</dim>
				</port>
			</output>
		</layer>
		<layer id="222" name="2926" type="Const" version="opset1">
			<data element_type="f32" shape="960, 160, 1, 1" offset="2791196" size="614400"/>
			<rt_info>
				<attribute name="fused_names" version="0" value="2926"/>
			</rt_info>
			<output>
				<port id="0" precision="FP32" names="2926">
					<dim>960</dim>
					<dim>160</dim>
					<dim>1</dim>
					<dim>1</dim>
				</port>
			</output>
		</layer>
		<layer id="223" name="Convolution_4021" type="Convolution" version="opset1">
			<data strides="1, 1" dilations="1, 1" pads_begin="0, 0" pads_end="0, 0" auto_pad="explicit"/>
			<rt_info>
				<attribute name="fused_names" version="0" value="Convolution_4021"/>
			</rt_info>
			<input>
				<port id="0" precision="FP32">
					<dim>1</dim>
					<dim>160</dim>
					<dim>23</dim>
					<dim>40</dim>
				</port>
				<port id="1" precision="FP32">
					<dim>960</dim>
					<dim>160</dim>
					<dim>1</dim>
					<dim>1</dim>
				</port>
			</input>
			<output>
				<port id="2" precision="FP32">
					<dim>1</dim>
					<dim>960</dim>
					<dim>23</dim>
					<dim>40</dim>
				</port>
			</output>
		</layer>
		<layer id="224" name="Reshape_4041" type="Const" version="opset1">
			<data element_type="f32" shape="1, 960, 1, 1" offset="3405596" size="3840"/>
			<output>
				<port id="0" precision="FP32">
					<dim>1</dim>
					<dim>960</dim>
					<dim>1</dim>
					<dim>1</dim>
				</port>
			</output>
		</layer>
		<layer id="225" name="2925" type="Add" version="opset1">
			<data auto_broadcast="numpy"/>
			<rt_info>
				<attribute name="fused_names" version="0" value="2925, Concat_4040, Reshape_4041"/>
			</rt_info>
			<input>
				<port id="0" precision="FP32">
					<dim>1</dim>
					<dim>960</dim>
					<dim>23</dim>
					<dim>40</dim>
				</port>
				<port id="1" precision="FP32">
					<dim>1</dim>
					<dim>960</dim>
					<dim>1</dim>
					<dim>1</dim>
				</port>
			</input>
			<output>
				<port id="2" precision="FP32" names="2925">
					<dim>1</dim>
					<dim>960</dim>
					<dim>23</dim>
					<dim>40</dim>
				</port>
			</output>
		</layer>
		<layer id="226" name="555" type="Clamp" version="opset1">
			<data min="0" max="6"/>
			<rt_info>
				<attribute name="fused_names" version="0" value="555, Maximum_4069"/>
			</rt_info>
			<input>
				<port id="0" precision="FP32">
					<dim>1</dim>
					<dim>960</dim>
					<dim>23</dim>
					<dim>40</dim>
				</port>
			</input>
			<output>
				<port id="1" precision="FP32" names="555">
					<dim>1</dim>
					<dim>960</dim>
					<dim>23</dim>
					<dim>40</dim>
				</port>
			</output>
		</layer>
		<layer id="227" name="Reshape_4078" type="Const" version="opset1">
			<data element_type="f32" shape="960, 1, 1, 3, 3" offset="3409436" size="34560"/>
			<output>
				<port id="0" precision="FP32">
					<dim>960</dim>
					<dim>1</dim>
					<dim>1</dim>
					<dim>3</dim>
					<dim>3</dim>
				</port>
			</output>
		</layer>
		<layer id="228" name="GroupConvolution_4144" type="GroupConvolution" version="opset1">
			<data strides="1, 1" pads_begin="1, 1" pads_end="1, 1" dilations="1, 1" auto_pad="explicit"/>
			<rt_info>
				<attribute name="fused_names" version="0" value="GroupConvolution_4144, Reshape_4078"/>
			</rt_info>
			<input>
				<port id="0" precision="FP32">
					<dim>1</dim>
					<dim>960</dim>
					<dim>23</dim>
					<dim>40</dim>
				</port>
				<port id="1" precision="FP32">
					<dim>960</dim>
					<dim>1</dim>
					<dim>1</dim>
					<dim>3</dim>
					<dim>3</dim>
				</port>
			</input>
			<output>
				<port id="2" precision="FP32">
					<dim>1</dim>
					<dim>960</dim>
					<dim>23</dim>
					<dim>40</dim>
				</port>
			</output>
		</layer>
		<layer id="229" name="Reshape_4164" type="Const" version="opset1">
			<data element_type="f32" shape="1, 960, 1, 1" offset="3443996" size="3840"/>
			<output>
				<port id="0" precision="FP32">
					<dim>1</dim>
					<dim>960</dim>
					<dim>1</dim>
					<dim>1</dim>
				</port>
			</output>
		</layer>
		<layer id="230" name="2928" type="Add" version="opset1">
			<data auto_broadcast="numpy"/>
			<rt_info>
				<attribute name="fused_names" version="0" value="2928, Concat_4163, Reshape_4164"/>
			</rt_info>
			<input>
				<port id="0" precision="FP32">
					<dim>1</dim>
					<dim>960</dim>
					<dim>23</dim>
					<dim>40</dim>
				</port>
				<port id="1" precision="FP32">
					<dim>1</dim>
					<dim>960</dim>
					<dim>1</dim>
					<dim>1</dim>
				</port>
			</input>
			<output>
				<port id="2" precision="FP32" names="2928">
					<dim>1</dim>
					<dim>960</dim>
					<dim>23</dim>
					<dim>40</dim>
				</port>
			</output>
		</layer>
		<layer id="231" name="560" type="Clamp" version="opset1">
			<data min="0" max="6"/>
			<rt_info>
				<attribute name="fused_names" version="0" value="560, Maximum_4192"/>
			</rt_info>
			<input>
				<port id="0" precision="FP32">
					<dim>1</dim>
					<dim>960</dim>
					<dim>23</dim>
					<dim>40</dim>
				</port>
			</input>
			<output>
				<port id="1" precision="FP32" names="560">
					<dim>1</dim>
					<dim>960</dim>
					<dim>23</dim>
					<dim>40</dim>
				</port>
			</output>
		</layer>
		<layer id="232" name="2932" type="Const" version="opset1">
			<data element_type="f32" shape="160, 960, 1, 1" offset="3447836" size="614400"/>
			<rt_info>
				<attribute name="fused_names" version="0" value="2932"/>
			</rt_info>
			<output>
				<port id="0" precision="FP32" names="2932">
					<dim>160</dim>
					<dim>960</dim>
					<dim>1</dim>
					<dim>1</dim>
				</port>
			</output>
		</layer>
		<layer id="233" name="Convolution_4194" type="Convolution" version="opset1">
			<data strides="1, 1" dilations="1, 1" pads_begin="0, 0" pads_end="0, 0" auto_pad="explicit"/>
			<rt_info>
				<attribute name="fused_names" version="0" value="Convolution_4194"/>
			</rt_info>
			<input>
				<port id="0" precision="FP32">
					<dim>1</dim>
					<dim>960</dim>
					<dim>23</dim>
					<dim>40</dim>
				</port>
				<port id="1" precision="FP32">
					<dim>160</dim>
					<dim>960</dim>
					<dim>1</dim>
					<dim>1</dim>
				</port>
			</input>
			<output>
				<port id="2" precision="FP32">
					<dim>1</dim>
					<dim>160</dim>
					<dim>23</dim>
					<dim>40</dim>
				</port>
			</output>
		</layer>
		<layer id="234" name="Reshape_4214" type="Const" version="opset1">
			<data element_type="f32" shape="1, 160, 1, 1" offset="4062236" size="640"/>
			<output>
				<port id="0" precision="FP32">
					<dim>1</dim>
					<dim>160</dim>
					<dim>1</dim>
					<dim>1</dim>
				</port>
			</output>
		</layer>
		<layer id="235" name="2931" type="Add" version="opset1">
			<data auto_broadcast="numpy"/>
			<rt_info>
				<attribute name="fused_names" version="0" value="2931, Concat_4213, Reshape_4214"/>
			</rt_info>
			<input>
				<port id="0" precision="FP32">
					<dim>1</dim>
					<dim>160</dim>
					<dim>23</dim>
					<dim>40</dim>
				</port>
				<port id="1" precision="FP32">
					<dim>1</dim>
					<dim>160</dim>
					<dim>1</dim>
					<dim>1</dim>
				</port>
			</input>
			<output>
				<port id="2" precision="FP32" names="2931">
					<dim>1</dim>
					<dim>160</dim>
					<dim>23</dim>
					<dim>40</dim>
				</port>
			</output>
		</layer>
		<layer id="236" name="563" type="Add" version="opset1">
			<data auto_broadcast="numpy"/>
			<rt_info>
				<attribute name="fused_names" version="0" value="563"/>
			</rt_info>
			<input>
				<port id="0" precision="FP32">
					<dim>1</dim>
					<dim>160</dim>
					<dim>23</dim>
					<dim>40</dim>
				</port>
				<port id="1" precision="FP32">
					<dim>1</dim>
					<dim>160</dim>
					<dim>23</dim>
					<dim>40</dim>
				</port>
			</input>
			<output>
				<port id="2" precision="FP32" names="563">
					<dim>1</dim>
					<dim>160</dim>
					<dim>23</dim>
					<dim>40</dim>
				</port>
			</output>
		</layer>
		<layer id="237" name="2935" type="Const" version="opset1">
			<data element_type="f32" shape="960, 160, 1, 1" offset="4062876" size="614400"/>
			<rt_info>
				<attribute name="fused_names" version="0" value="2935"/>
			</rt_info>
			<output>
				<port id="0" precision="FP32" names="2935">
					<dim>960</dim>
					<dim>160</dim>
					<dim>1</dim>
					<dim>1</dim>
				</port>
			</output>
		</layer>
		<layer id="238" name="Convolution_4243" type="Convolution" version="opset1">
			<data strides="1, 1" dilations="1, 1" pads_begin="0, 0" pads_end="0, 0" auto_pad="explicit"/>
			<rt_info>
				<attribute name="fused_names" version="0" value="Convolution_4243"/>
			</rt_info>
			<input>
				<port id="0" precision="FP32">
					<dim>1</dim>
					<dim>160</dim>
					<dim>23</dim>
					<dim>40</dim>
				</port>
				<port id="1" precision="FP32">
					<dim>960</dim>
					<dim>160</dim>
					<dim>1</dim>
					<dim>1</dim>
				</port>
			</input>
			<output>
				<port id="2" precision="FP32">
					<dim>1</dim>
					<dim>960</dim>
					<dim>23</dim>
					<dim>40</dim>
				</port>
			</output>
		</layer>
		<layer id="239" name="Reshape_4263" type="Const" version="opset1">
			<data element_type="f32" shape="1, 960, 1, 1" offset="4677276" size="3840"/>
			<output>
				<port id="0" precision="FP32">
					<dim>1</dim>
					<dim>960</dim>
					<dim>1</dim>
					<dim>1</dim>
				</port>
			</output>
		</layer>
		<layer id="240" name="2934" type="Add" version="opset1">
			<data auto_broadcast="numpy"/>
			<rt_info>
				<attribute name="fused_names" version="0" value="2934, Concat_4262, Reshape_4263"/>
			</rt_info>
			<input>
				<port id="0" precision="FP32">
					<dim>1</dim>
					<dim>960</dim>
					<dim>23</dim>
					<dim>40</dim>
				</port>
				<port id="1" precision="FP32">
					<dim>1</dim>
					<dim>960</dim>
					<dim>1</dim>
					<dim>1</dim>
				</port>
			</input>
			<output>
				<port id="2" precision="FP32" names="2934">
					<dim>1</dim>
					<dim>960</dim>
					<dim>23</dim>
					<dim>40</dim>
				</port>
			</output>
		</layer>
		<layer id="241" name="568" type="Clamp" version="opset1">
			<data min="0" max="6"/>
			<rt_info>
				<attribute name="fused_names" version="0" value="568, Maximum_4291"/>
			</rt_info>
			<input>
				<port id="0" precision="FP32">
					<dim>1</dim>
					<dim>960</dim>
					<dim>23</dim>
					<dim>40</dim>
				</port>
			</input>
			<output>
				<port id="1" precision="FP32" names="568">
					<dim>1</dim>
					<dim>960</dim>
					<dim>23</dim>
					<dim>40</dim>
				</port>
			</output>
		</layer>
		<layer id="242" name="Reshape_4300" type="Const" version="opset1">
			<data element_type="f32" shape="960, 1, 1, 3, 3" offset="4681116" size="34560"/>
			<output>
				<port id="0" precision="FP32">
					<dim>960</dim>
					<dim>1</dim>
					<dim>1</dim>
					<dim>3</dim>
					<dim>3</dim>
				</port>
			</output>
		</layer>
		<layer id="243" name="GroupConvolution_4366" type="GroupConvolution" version="opset1">
			<data strides="1, 1" pads_begin="1, 1" pads_end="1, 1" dilations="1, 1" auto_pad="explicit"/>
			<rt_info>
				<attribute name="fused_names" version="0" value="GroupConvolution_4366, Reshape_4300"/>
			</rt_info>
			<input>
				<port id="0" precision="FP32">
					<dim>1</dim>
					<dim>960</dim>
					<dim>23</dim>
					<dim>40</dim>
				</port>
				<port id="1" precision="FP32">
					<dim>960</dim>
					<dim>1</dim>
					<dim>1</dim>
					<dim>3</dim>
					<dim>3</dim>
				</port>
			</input>
			<output>
				<port id="2" precision="FP32">
					<dim>1</dim>
					<dim>960</dim>
					<dim>23</dim>
					<dim>40</dim>
				</port>
			</output>
		</layer>
		<layer id="244" name="Reshape_4386" type="Const" version="opset1">
			<data element_type="f32" shape="1, 960, 1, 1" offset="4715676" size="3840"/>
			<output>
				<port id="0" precision="FP32">
					<dim>1</dim>
					<dim>960</dim>
					<dim>1</dim>
					<dim>1</dim>
				</port>
			</output>
		</layer>
		<layer id="245" name="2937" type="Add" version="opset1">
			<data auto_broadcast="numpy"/>
			<rt_info>
				<attribute name="fused_names" version="0" value="2937, Concat_4385, Reshape_4386"/>
			</rt_info>
			<input>
				<port id="0" precision="FP32">
					<dim>1</dim>
					<dim>960</dim>
					<dim>23</dim>
					<dim>40</dim>
				</port>
				<port id="1" precision="FP32">
					<dim>1</dim>
					<dim>960</dim>
					<dim>1</dim>
					<dim>1</dim>
				</port>
			</input>
			<output>
				<port id="2" precision="FP32" names="2937">
					<dim>1</dim>
					<dim>960</dim>
					<dim>23</dim>
					<dim>40</dim>
				</port>
			</output>
		</layer>
		<layer id="246" name="573" type="Clamp" version="opset1">
			<data min="0" max="6"/>
			<rt_info>
				<attribute name="fused_names" version="0" value="573, Maximum_4414"/>
			</rt_info>
			<input>
				<port id="0" precision="FP32">
					<dim>1</dim>
					<dim>960</dim>
					<dim>23</dim>
					<dim>40</dim>
				</port>
			</input>
			<output>
				<port id="1" precision="FP32" names="573">
					<dim>1</dim>
					<dim>960</dim>
					<dim>23</dim>
					<dim>40</dim>
				</port>
			</output>
		</layer>
		<layer id="247" name="2941" type="Const" version="opset1">
			<data element_type="f32" shape="160, 960, 1, 1" offset="4719516" size="614400"/>
			<rt_info>
				<attribute name="fused_names" version="0" value="2941"/>
			</rt_info>
			<output>
				<port id="0" precision="FP32" names="2941">
					<dim>160</dim>
					<dim>960</dim>
					<dim>1</dim>
					<dim>1</dim>
				</port>
			</output>
		</layer>
		<layer id="248" name="Convolution_4416" type="Convolution" version="opset1">
			<data strides="1, 1" dilations="1, 1" pads_begin="0, 0" pads_end="0, 0" auto_pad="explicit"/>
			<rt_info>
				<attribute name="fused_names" version="0" value="Convolution_4416"/>
			</rt_info>
			<input>
				<port id="0" precision="FP32">
					<dim>1</dim>
					<dim>960</dim>
					<dim>23</dim>
					<dim>40</dim>
				</port>
				<port id="1" precision="FP32">
					<dim>160</dim>
					<dim>960</dim>
					<dim>1</dim>
					<dim>1</dim>
				</port>
			</input>
			<output>
				<port id="2" precision="FP32">
					<dim>1</dim>
					<dim>160</dim>
					<dim>23</dim>
					<dim>40</dim>
				</port>
			</output>
		</layer>
		<layer id="249" name="Reshape_4436" type="Const" version="opset1">
			<data element_type="f32" shape="1, 160, 1, 1" offset="5333916" size="640"/>
			<output>
				<port id="0" precision="FP32">
					<dim>1</dim>
					<dim>160</dim>
					<dim>1</dim>
					<dim>1</dim>
				</port>
			</output>
		</layer>
		<layer id="250" name="2940" type="Add" version="opset1">
			<data auto_broadcast="numpy"/>
			<rt_info>
				<attribute name="fused_names" version="0" value="2940, Concat_4435, Reshape_4436"/>
			</rt_info>
			<input>
				<port id="0" precision="FP32">
					<dim>1</dim>
					<dim>160</dim>
					<dim>23</dim>
					<dim>40</dim>
				</port>
				<port id="1" precision="FP32">
					<dim>1</dim>
					<dim>160</dim>
					<dim>1</dim>
					<dim>1</dim>
				</port>
			</input>
			<output>
				<port id="2" precision="FP32" names="2940">
					<dim>1</dim>
					<dim>160</dim>
					<dim>23</dim>
					<dim>40</dim>
				</port>
			</output>
		</layer>
		<layer id="251" name="576" type="Add" version="opset1">
			<data auto_broadcast="numpy"/>
			<rt_info>
				<attribute name="fused_names" version="0" value="576"/>
			</rt_info>
			<input>
				<port id="0" precision="FP32">
					<dim>1</dim>
					<dim>160</dim>
					<dim>23</dim>
					<dim>40</dim>
				</port>
				<port id="1" precision="FP32">
					<dim>1</dim>
					<dim>160</dim>
					<dim>23</dim>
					<dim>40</dim>
				</port>
			</input>
			<output>
				<port id="2" precision="FP32" names="576">
					<dim>1</dim>
					<dim>160</dim>
					<dim>23</dim>
					<dim>40</dim>
				</port>
			</output>
		</layer>
		<layer id="252" name="2944" type="Const" version="opset1">
			<data element_type="f32" shape="960, 160, 1, 1" offset="5334556" size="614400"/>
			<rt_info>
				<attribute name="fused_names" version="0" value="2944"/>
			</rt_info>
			<output>
				<port id="0" precision="FP32" names="2944">
					<dim>960</dim>
					<dim>160</dim>
					<dim>1</dim>
					<dim>1</dim>
				</port>
			</output>
		</layer>
		<layer id="253" name="Convolution_4465" type="Convolution" version="opset1">
			<data strides="1, 1" dilations="1, 1" pads_begin="0, 0" pads_end="0, 0" auto_pad="explicit"/>
			<rt_info>
				<attribute name="fused_names" version="0" value="Convolution_4465"/>
			</rt_info>
			<input>
				<port id="0" precision="FP32">
					<dim>1</dim>
					<dim>160</dim>
					<dim>23</dim>
					<dim>40</dim>
				</port>
				<port id="1" precision="FP32">
					<dim>960</dim>
					<dim>160</dim>
					<dim>1</dim>
					<dim>1</dim>
				</port>
			</input>
			<output>
				<port id="2" precision="FP32">
					<dim>1</dim>
					<dim>960</dim>
					<dim>23</dim>
					<dim>40</dim>
				</port>
			</output>
		</layer>
		<layer id="254" name="Reshape_4485" type="Const" version="opset1">
			<data element_type="f32" shape="1, 960, 1, 1" offset="5948956" size="3840"/>
			<output>
				<port id="0" precision="FP32">
					<dim>1</dim>
					<dim>960</dim>
					<dim>1</dim>
					<dim>1</dim>
				</port>
			</output>
		</layer>
		<layer id="255" name="2943" type="Add" version="opset1">
			<data auto_broadcast="numpy"/>
			<rt_info>
				<attribute name="fused_names" version="0" value="2943, Concat_4484, Reshape_4485"/>
			</rt_info>
			<input>
				<port id="0" precision="FP32">
					<dim>1</dim>
					<dim>960</dim>
					<dim>23</dim>
					<dim>40</dim>
				</port>
				<port id="1" precision="FP32">
					<dim>1</dim>
					<dim>960</dim>
					<dim>1</dim>
					<dim>1</dim>
				</port>
			</input>
			<output>
				<port id="2" precision="FP32" names="2943">
					<dim>1</dim>
					<dim>960</dim>
					<dim>23</dim>
					<dim>40</dim>
				</port>
			</output>
		</layer>
		<layer id="256" name="581" type="Clamp" version="opset1">
			<data min="0" max="6"/>
			<rt_info>
				<attribute name="fused_names" version="0" value="581, Maximum_4513"/>
			</rt_info>
			<input>
				<port id="0" precision="FP32">
					<dim>1</dim>
					<dim>960</dim>
					<dim>23</dim>
					<dim>40</dim>
				</port>
			</input>
			<output>
				<port id="1" precision="FP32" names="581">
					<dim>1</dim>
					<dim>960</dim>
					<dim>23</dim>
					<dim>40</dim>
				</port>
			</output>
		</layer>
		<layer id="257" name="Reshape_4522" type="Const" version="opset1">
			<data element_type="f32" shape="960, 1, 1, 3, 3" offset="5952796" size="34560"/>
			<output>
				<port id="0" precision="FP32">
					<dim>960</dim>
					<dim>1</dim>
					<dim>1</dim>
					<dim>3</dim>
					<dim>3</dim>
				</port>
			</output>
		</layer>
		<layer id="258" name="GroupConvolution_4588" type="GroupConvolution" version="opset1">
			<data strides="1, 1" pads_begin="1, 1" pads_end="1, 1" dilations="1, 1" auto_pad="explicit"/>
			<rt_info>
				<attribute name="fused_names" version="0" value="GroupConvolution_4588, Reshape_4522"/>
			</rt_info>
			<input>
				<port id="0" precision="FP32">
					<dim>1</dim>
					<dim>960</dim>
					<dim>23</dim>
					<dim>40</dim>
				</port>
				<port id="1" precision="FP32">
					<dim>960</dim>
					<dim>1</dim>
					<dim>1</dim>
					<dim>3</dim>
					<dim>3</dim>
				</port>
			</input>
			<output>
				<port id="2" precision="FP32">
					<dim>1</dim>
					<dim>960</dim>
					<dim>23</dim>
					<dim>40</dim>
				</port>
			</output>
		</layer>
		<layer id="259" name="Reshape_4608" type="Const" version="opset1">
			<data element_type="f32" shape="1, 960, 1, 1" offset="5987356" size="3840"/>
			<output>
				<port id="0" precision="FP32">
					<dim>1</dim>
					<dim>960</dim>
					<dim>1</dim>
					<dim>1</dim>
				</port>
			</output>
		</layer>
		<layer id="260" name="2946" type="Add" version="opset1">
			<data auto_broadcast="numpy"/>
			<rt_info>
				<attribute name="fused_names" version="0" value="2946, Concat_4607, Reshape_4608"/>
			</rt_info>
			<input>
				<port id="0" precision="FP32">
					<dim>1</dim>
					<dim>960</dim>
					<dim>23</dim>
					<dim>40</dim>
				</port>
				<port id="1" precision="FP32">
					<dim>1</dim>
					<dim>960</dim>
					<dim>1</dim>
					<dim>1</dim>
				</port>
			</input>
			<output>
				<port id="2" precision="FP32" names="2946">
					<dim>1</dim>
					<dim>960</dim>
					<dim>23</dim>
					<dim>40</dim>
				</port>
			</output>
		</layer>
		<layer id="261" name="586" type="Clamp" version="opset1">
			<data min="0" max="6"/>
			<rt_info>
				<attribute name="fused_names" version="0" value="586, Maximum_4636"/>
			</rt_info>
			<input>
				<port id="0" precision="FP32">
					<dim>1</dim>
					<dim>960</dim>
					<dim>23</dim>
					<dim>40</dim>
				</port>
			</input>
			<output>
				<port id="1" precision="FP32" names="586">
					<dim>1</dim>
					<dim>960</dim>
					<dim>23</dim>
					<dim>40</dim>
				</port>
			</output>
		</layer>
		<layer id="262" name="2950" type="Const" version="opset1">
			<data element_type="f32" shape="320, 960, 1, 1" offset="5991196" size="1228800"/>
			<rt_info>
				<attribute name="fused_names" version="0" value="2950"/>
			</rt_info>
			<output>
				<port id="0" precision="FP32" names="2950">
					<dim>320</dim>
					<dim>960</dim>
					<dim>1</dim>
					<dim>1</dim>
				</port>
			</output>
		</layer>
		<layer id="263" name="Convolution_4638" type="Convolution" version="opset1">
			<data strides="1, 1" dilations="1, 1" pads_begin="0, 0" pads_end="0, 0" auto_pad="explicit"/>
			<rt_info>
				<attribute name="fused_names" version="0" value="Convolution_4638"/>
			</rt_info>
			<input>
				<port id="0" precision="FP32">
					<dim>1</dim>
					<dim>960</dim>
					<dim>23</dim>
					<dim>40</dim>
				</port>
				<port id="1" precision="FP32">
					<dim>320</dim>
					<dim>960</dim>
					<dim>1</dim>
					<dim>1</dim>
				</port>
			</input>
			<output>
				<port id="2" precision="FP32">
					<dim>1</dim>
					<dim>320</dim>
					<dim>23</dim>
					<dim>40</dim>
				</port>
			</output>
		</layer>
		<layer id="264" name="Reshape_4658" type="Const" version="opset1">
			<data element_type="f32" shape="1, 320, 1, 1" offset="7219996" size="1280"/>
			<output>
				<port id="0" precision="FP32">
					<dim>1</dim>
					<dim>320</dim>
					<dim>1</dim>
					<dim>1</dim>
				</port>
			</output>
		</layer>
		<layer id="265" name="2949" type="Add" version="opset1">
			<data auto_broadcast="numpy"/>
			<rt_info>
				<attribute name="fused_names" version="0" value="2949, Concat_4657, Reshape_4658"/>
			</rt_info>
			<input>
				<port id="0" precision="FP32">
					<dim>1</dim>
					<dim>320</dim>
					<dim>23</dim>
					<dim>40</dim>
				</port>
				<port id="1" precision="FP32">
					<dim>1</dim>
					<dim>320</dim>
					<dim>1</dim>
					<dim>1</dim>
				</port>
			</input>
			<output>
				<port id="2" precision="FP32" names="2949">
					<dim>1</dim>
					<dim>320</dim>
					<dim>23</dim>
					<dim>40</dim>
				</port>
			</output>
		</layer>
		<layer id="266" name="neck.lateral_convs.2.conv.weight" type="Const" version="opset1">
			<data element_type="f32" shape="64, 320, 1, 1" offset="7221276" size="81920"/>
			<rt_info>
				<attribute name="fused_names" version="0" value="neck.lateral_convs.2.conv.weight"/>
			</rt_info>
			<output>
				<port id="0" precision="FP32" names="neck.lateral_convs.2.conv.weight">
					<dim>64</dim>
					<dim>320</dim>
					<dim>1</dim>
					<dim>1</dim>
				</port>
			</output>
		</layer>
		<layer id="267" name="Convolution_4782" type="Convolution" version="opset1">
			<data strides="1, 1" dilations="1, 1" pads_begin="0, 0" pads_end="0, 0" auto_pad="explicit"/>
			<rt_info>
				<attribute name="fused_names" version="0" value="Convolution_4782"/>
			</rt_info>
			<input>
				<port id="0" precision="FP32">
					<dim>1</dim>
					<dim>320</dim>
					<dim>23</dim>
					<dim>40</dim>
				</port>
				<port id="1" precision="FP32">
					<dim>64</dim>
					<dim>320</dim>
					<dim>1</dim>
					<dim>1</dim>
				</port>
			</input>
			<output>
				<port id="2" precision="FP32">
					<dim>1</dim>
					<dim>64</dim>
					<dim>23</dim>
					<dim>40</dim>
				</port>
			</output>
		</layer>
		<layer id="268" name="Reshape_4802" type="Const" version="opset1">
			<data element_type="f32" shape="1, 64, 1, 1" offset="7303196" size="256"/>
			<output>
				<port id="0" precision="FP32">
					<dim>1</dim>
					<dim>64</dim>
					<dim>1</dim>
					<dim>1</dim>
				</port>
			</output>
		</layer>
		<layer id="269" name="591" type="Add" version="opset1">
			<data auto_broadcast="numpy"/>
			<rt_info>
				<attribute name="fused_names" version="0" value="591, Concat_4801, Reshape_4802"/>
			</rt_info>
			<input>
				<port id="0" precision="FP32">
					<dim>1</dim>
					<dim>64</dim>
					<dim>23</dim>
					<dim>40</dim>
				</port>
				<port id="1" precision="FP32">
					<dim>1</dim>
					<dim>64</dim>
					<dim>1</dim>
					<dim>1</dim>
				</port>
			</input>
			<output>
				<port id="2" precision="FP32" names="591">
					<dim>1</dim>
					<dim>64</dim>
					<dim>23</dim>
					<dim>40</dim>
				</port>
			</output>
		</layer>
		<layer id="270" name="601" type="ShapeOf" version="opset3">
			<data output_type="i64"/>
			<rt_info>
				<attribute name="fused_names" version="0" value="601, ShapeOf_4863"/>
			</rt_info>
			<input>
				<port id="0" precision="FP32">
					<dim>1</dim>
					<dim>64</dim>
					<dim>23</dim>
					<dim>40</dim>
				</port>
			</input>
			<output>
				<port id="1" precision="I64" names="601">
					<dim>4</dim>
				</port>
			</output>
		</layer>
		<layer id="271" name="603" type="Const" version="opset1">
			<data element_type="i64" shape="1" offset="16" size="8"/>
			<rt_info>
				<attribute name="fused_names" version="0" value="602, 603, 604, 605, Broadcast_4844, ShapeOf_4843"/>
			</rt_info>
			<output>
				<port id="0" precision="I64" names="603">
					<dim>1</dim>
				</port>
			</output>
		</layer>
		<layer id="272" name="604" type="Const" version="opset1">
			<data element_type="i64" shape="1" offset="7303452" size="8"/>
			<rt_info>
				<attribute name="fused_names" version="0" value="602, 603, 604, 605, Broadcast_4844, ShapeOf_4843"/>
			</rt_info>
			<output>
				<port id="0" precision="I64" names="604">
					<dim>1</dim>
				</port>
			</output>
		</layer>
		<layer id="273" name="Broadcast_4844" type="Const" version="opset1">
			<data element_type="i64" shape="1" offset="7303460" size="8"/>
			<rt_info>
				<attribute name="fused_names" version="0" value="602, 603, 604, 605, Broadcast_4844, ShapeOf_4843"/>
			</rt_info>
			<output>
				<port id="0" precision="I64">
					<dim>1</dim>
				</port>
			</output>
		</layer>
		<layer id="274" name="605" type="StridedSlice" version="opset1">
			<data begin_mask="0" end_mask="0" new_axis_mask="" shrink_axis_mask="" ellipsis_mask=""/>
			<rt_info>
				<attribute name="fused_names" version="0" value="602, 603, 604, 605, Broadcast_4844, ShapeOf_4843"/>
			</rt_info>
			<input>
				<port id="0" precision="I64">
					<dim>4</dim>
				</port>
				<port id="1" precision="I64">
					<dim>1</dim>
				</port>
				<port id="2" precision="I64">
					<dim>1</dim>
				</port>
				<port id="3" precision="I64">
					<dim>1</dim>
				</port>
			</input>
			<output>
				<port id="4" precision="I64" names="605">
					<dim>2</dim>
				</port>
			</output>
		</layer>
		<layer id="275" name="592" type="ShapeOf" version="opset3">
			<data output_type="i64"/>
			<rt_info>
				<attribute name="fused_names" version="0" value="592, 595"/>
			</rt_info>
			<input>
				<port id="0" precision="FP32">
					<dim>1</dim>
					<dim>64</dim>
					<dim>45</dim>
					<dim>80</dim>
				</port>
			</input>
			<output>
				<port id="1" precision="I64" names="592,595">
					<dim>4</dim>
				</port>
			</output>
		</layer>
		<layer id="276" name="Constant_35778" type="Const" version="opset1">
			<data element_type="i64" shape="2" offset="7303468" size="16"/>
			<rt_info>
				<attribute name="fused_names" version="0" value="600"/>
			</rt_info>
			<output>
				<port id="0" precision="I64">
					<dim>2</dim>
				</port>
			</output>
		</layer>
		<layer id="277" name="Constant_35779" type="Const" version="opset1">
			<data element_type="i64" shape="" offset="16" size="8"/>
			<output>
				<port id="0" precision="I64"/>
			</output>
		</layer>
		<layer id="278" name="Gather_35780" type="Gather" version="opset8">
			<data batch_dims="0"/>
			<rt_info>
				<attribute name="fused_names" version="0" value="600, 606"/>
			</rt_info>
			<input>
				<port id="0" precision="I64">
					<dim>4</dim>
				</port>
				<port id="1" precision="I64">
					<dim>2</dim>
				</port>
				<port id="2" precision="I64"/>
			</input>
			<output>
				<port id="3" precision="I64" names="600,606">
					<dim>2</dim>
				</port>
			</output>
		</layer>
		<layer id="279" name="607" type="Concat" version="opset1">
			<data axis="0"/>
			<rt_info>
				<attribute name="fused_names" version="0" value="607"/>
			</rt_info>
			<input>
				<port id="0" precision="I64">
					<dim>2</dim>
				</port>
				<port id="1" precision="I64">
					<dim>2</dim>
				</port>
			</input>
			<output>
				<port id="2" precision="I64" names="607">
					<dim>4</dim>
				</port>
			</output>
		</layer>
		<layer id="280" name="Convert_4865" type="Convert" version="opset1">
			<data destination_type="f32"/>
			<rt_info>
				<attribute name="fused_names" version="0" value="Convert_4865"/>
			</rt_info>
			<input>
				<port id="0" precision="I64">
					<dim>4</dim>
				</port>
			</input>
			<output>
				<port id="1" precision="FP32">
					<dim>4</dim>
				</port>
			</output>
		</layer>
		<layer id="281" name="Convert_4864" type="Convert" version="opset1">
			<data destination_type="f32"/>
			<rt_info>
				<attribute name="fused_names" version="0" value="Convert_4864"/>
			</rt_info>
			<input>
				<port id="0" precision="I64">
					<dim>4</dim>
				</port>
			</input>
			<output>
				<port id="1" precision="FP32">
					<dim>4</dim>
				</port>
			</output>
		</layer>
		<layer id="282" name="Divide_4866" type="Divide" version="opset1">
			<data auto_broadcast="numpy" m_pythondiv="true"/>
			<rt_info>
				<attribute name="fused_names" version="0" value="Divide_4866"/>
			</rt_info>
			<input>
				<port id="0" precision="FP32">
					<dim>4</dim>
				</port>
				<port id="1" precision="FP32">
					<dim>4</dim>
				</port>
			</input>
			<output>
				<port id="2" precision="FP32">
					<dim>4</dim>
				</port>
			</output>
		</layer>
		<layer id="283" name="Constant_47737" type="Const" version="opset1">
			<data element_type="f32" shape="1" offset="7303484" size="4"/>
			<output>
				<port id="0" precision="FP32">
					<dim>1</dim>
				</port>
			</output>
		</layer>
		<layer id="284" name="Add_4868" type="Add" version="opset1">
			<data auto_broadcast="numpy"/>
			<rt_info>
				<attribute name="fused_names" version="0" value="Add_4868"/>
			</rt_info>
			<input>
				<port id="0" precision="FP32">
					<dim>4</dim>
				</port>
				<port id="1" precision="FP32">
					<dim>1</dim>
				</port>
			</input>
			<output>
				<port id="2" precision="FP32">
					<dim>4</dim>
				</port>
			</output>
		</layer>
		<layer id="285" name="610" type="Interpolate" version="opset4">
			<data mode="nearest" shape_calculation_mode="sizes" coordinate_transformation_mode="asymmetric" nearest_mode="floor" antialias="false" pads_begin="0, 0, 0, 0" pads_end="0, 0, 0, 0" cube_coeff="-0.75"/>
			<rt_info>
				<attribute name="fused_names" version="0" value="610"/>
			</rt_info>
			<input>
				<port id="0" precision="FP32">
					<dim>1</dim>
					<dim>64</dim>
					<dim>23</dim>
					<dim>40</dim>
				</port>
				<port id="1" precision="I64">
					<dim>4</dim>
				</port>
				<port id="2" precision="FP32">
					<dim>4</dim>
				</port>
			</input>
			<output>
				<port id="3" precision="FP32" names="610">
					<dim>1</dim>
					<dim>64</dim>
					<dim>45</dim>
					<dim>80</dim>
				</port>
			</output>
		</layer>
		<layer id="286" name="611" type="Add" version="opset1">
			<data auto_broadcast="numpy"/>
			<rt_info>
				<attribute name="fused_names" version="0" value="611"/>
			</rt_info>
			<input>
				<port id="0" precision="FP32">
					<dim>1</dim>
					<dim>64</dim>
					<dim>45</dim>
					<dim>80</dim>
				</port>
				<port id="1" precision="FP32">
					<dim>1</dim>
					<dim>64</dim>
					<dim>45</dim>
					<dim>80</dim>
				</port>
			</input>
			<output>
				<port id="2" precision="FP32" names="611">
					<dim>1</dim>
					<dim>64</dim>
					<dim>45</dim>
					<dim>80</dim>
				</port>
			</output>
		</layer>
		<layer id="287" name="621" type="ShapeOf" version="opset3">
			<data output_type="i64"/>
			<rt_info>
				<attribute name="fused_names" version="0" value="621, ShapeOf_4979"/>
			</rt_info>
			<input>
				<port id="0" precision="FP32">
					<dim>1</dim>
					<dim>64</dim>
					<dim>45</dim>
					<dim>80</dim>
				</port>
			</input>
			<output>
				<port id="1" precision="I64" names="621">
					<dim>4</dim>
				</port>
			</output>
		</layer>
		<layer id="288" name="623" type="Const" version="opset1">
			<data element_type="i64" shape="1" offset="16" size="8"/>
			<rt_info>
				<attribute name="fused_names" version="0" value="622, 623, 624, 625, Broadcast_4960, ShapeOf_4959"/>
			</rt_info>
			<output>
				<port id="0" precision="I64" names="623">
					<dim>1</dim>
				</port>
			</output>
		</layer>
		<layer id="289" name="624" type="Const" version="opset1">
			<data element_type="i64" shape="1" offset="7303452" size="8"/>
			<rt_info>
				<attribute name="fused_names" version="0" value="622, 623, 624, 625, Broadcast_4960, ShapeOf_4959"/>
			</rt_info>
			<output>
				<port id="0" precision="I64" names="624">
					<dim>1</dim>
				</port>
			</output>
		</layer>
		<layer id="290" name="Broadcast_4960" type="Const" version="opset1">
			<data element_type="i64" shape="1" offset="7303460" size="8"/>
			<rt_info>
				<attribute name="fused_names" version="0" value="622, 623, 624, 625, Broadcast_4960, ShapeOf_4959"/>
			</rt_info>
			<output>
				<port id="0" precision="I64">
					<dim>1</dim>
				</port>
			</output>
		</layer>
		<layer id="291" name="625" type="StridedSlice" version="opset1">
			<data begin_mask="0" end_mask="0" new_axis_mask="" shrink_axis_mask="" ellipsis_mask=""/>
			<rt_info>
				<attribute name="fused_names" version="0" value="622, 623, 624, 625, Broadcast_4960, ShapeOf_4959"/>
			</rt_info>
			<input>
				<port id="0" precision="I64">
					<dim>4</dim>
				</port>
				<port id="1" precision="I64">
					<dim>1</dim>
				</port>
				<port id="2" precision="I64">
					<dim>1</dim>
				</port>
				<port id="3" precision="I64">
					<dim>1</dim>
				</port>
			</input>
			<output>
				<port id="4" precision="I64" names="625">
					<dim>2</dim>
				</port>
			</output>
		</layer>
		<layer id="292" name="612" type="ShapeOf" version="opset3">
			<data output_type="i64"/>
			<rt_info>
				<attribute name="fused_names" version="0" value="612, 615"/>
			</rt_info>
			<input>
				<port id="0" precision="FP32">
					<dim>1</dim>
					<dim>64</dim>
					<dim>90</dim>
					<dim>160</dim>
				</port>
			</input>
			<output>
				<port id="1" precision="I64" names="612,615">
					<dim>4</dim>
				</port>
			</output>
		</layer>
		<layer id="293" name="Constant_35782" type="Const" version="opset1">
			<data element_type="i64" shape="2" offset="7303468" size="16"/>
			<rt_info>
				<attribute name="fused_names" version="0" value="620"/>
			</rt_info>
			<output>
				<port id="0" precision="I64">
					<dim>2</dim>
				</port>
			</output>
		</layer>
		<layer id="294" name="Constant_35783" type="Const" version="opset1">
			<data element_type="i64" shape="" offset="16" size="8"/>
			<output>
				<port id="0" precision="I64"/>
			</output>
		</layer>
		<layer id="295" name="Gather_35784" type="Gather" version="opset8">
			<data batch_dims="0"/>
			<rt_info>
				<attribute name="fused_names" version="0" value="620, 626"/>
			</rt_info>
			<input>
				<port id="0" precision="I64">
					<dim>4</dim>
				</port>
				<port id="1" precision="I64">
					<dim>2</dim>
				</port>
				<port id="2" precision="I64"/>
			</input>
			<output>
				<port id="3" precision="I64" names="620,626">
					<dim>2</dim>
				</port>
			</output>
		</layer>
		<layer id="296" name="627" type="Concat" version="opset1">
			<data axis="0"/>
			<rt_info>
				<attribute name="fused_names" version="0" value="627"/>
…
		<edge from-layer="1969" from-port="2" to-layer="1973" to-port="0"/>
		<edge from-layer="1969" from-port="2" to-layer="1971" to-port="0"/>
		<edge from-layer="1970" from-port="0" to-layer="1971" to-port="1"/>
		<edge from-layer="1971" from-port="2" to-layer="1977" to-port="0"/>
		<edge from-layer="1972" from-port="0" to-layer="1974" to-port="0"/>
		<edge from-layer="1973" from-port="1" to-layer="1974" to-port="1"/>
		<edge from-layer="1974" from-port="2" to-layer="1976" to-port="0"/>
		<edge from-layer="1975" from-port="0" to-layer="1976" to-port="1"/>
		<edge from-layer="1976" from-port="2" to-layer="1977" to-port="1"/>
		<edge from-layer="1977" from-port="2" to-layer="1979" to-port="0"/>
		<edge from-layer="1978" from-port="0" to-layer="1979" to-port="1"/>
		<edge from-layer="1979" from-port="2" to-layer="1988" to-port="0"/>
		<edge from-layer="1979" from-port="2" to-layer="1981" to-port="0"/>
		<edge from-layer="1980" from-port="0" to-layer="1981" to-port="1"/>
		<edge from-layer="1981" from-port="2" to-layer="1992" to-port="0"/>
		<edge from-layer="1982" from-port="0" to-layer="1984" to-port="1"/>
		<edge from-layer="1983" from-port="0" to-layer="1984" to-port="2"/>
		<edge from-layer="1984" from-port="3" to-layer="1985" to-port="0"/>
		<edge from-layer="1985" from-port="1" to-layer="1987" to-port="0"/>
		<edge from-layer="1986" from-port="0" to-layer="1987" to-port="1"/>
		<edge from-layer="1987" from-port="2" to-layer="1989" to-port="0"/>
		<edge from-layer="1988" from-port="1" to-layer="1989" to-port="1"/>
		<edge from-layer="1989" from-port="2" to-layer="1991" to-port="0"/>
		<edge from-layer="1990" from-port="0" to-layer="1991" to-port="1"/>
		<edge from-layer="1991" from-port="2" to-layer="1992" to-port="1"/>
		<edge from-layer="1992" from-port="2" to-layer="1994" to-port="0"/>
		<edge from-layer="1993" from-port="0" to-layer="1994" to-port="1"/>
		<edge from-layer="1994" from-port="2" to-layer="1996" to-port="0"/>
		<edge from-layer="1995" from-port="0" to-layer="1996" to-port="1"/>
		<edge from-layer="1996" from-port="2" to-layer="2027" to-port="2"/>
		<edge from-layer="1997" from-port="0" to-layer="1998" to-port="1"/>
		<edge from-layer="1998" from-port="2" to-layer="1999" to-port="1"/>
		<edge from-layer="1999" from-port="2" to-layer="2001" to-port="0"/>
		<edge from-layer="1999" from-port="2" to-layer="2003" to-port="0"/>
		<edge from-layer="2000" from-port="0" to-layer="2001" to-port="1"/>
		<edge from-layer="2001" from-port="2" to-layer="2007" to-port="0"/>
		<edge from-layer="2002" from-port="0" to-layer="2004" to-port="0"/>
		<edge from-layer="2003" from-port="1" to-layer="2004" to-port="1"/>
		<edge from-layer="2004" from-port="2" to-layer="2006" to-port="0"/>
		<edge from-layer="2005" from-port="0" to-layer="2006" to-port="1"/>
		<edge from-layer="2006" from-port="2" to-layer="2007" to-port="1"/>
		<edge from-layer="2007" from-port="2" to-layer="2009" to-port="0"/>
		<edge from-layer="2008" from-port="0" to-layer="2009" to-port="1"/>
		<edge from-layer="2009" from-port="2" to-layer="2011" to-port="0"/>
		<edge from-layer="2009" from-port="2" to-layer="2018" to-port="0"/>
		<edge from-layer="2010" from-port="0" to-layer="2011" to-port="1"/>
		<edge from-layer="2011" from-port="2" to-layer="2022" to-port="0"/>
		<edge from-layer="2012" from-port="0" to-layer="2014" to-port="1"/>
		<edge from-layer="2013" from-port="0" to-layer="2014" to-port="2"/>
		<edge from-layer="2014" from-port="3" to-layer="2015" to-port="0"/>
		<edge from-layer="2015" from-port="1" to-layer="2017" to-port="0"/>
		<edge from-layer="2016" from-port="0" to-layer="2017" to-port="1"/>
		<edge from-layer="2017" from-port="2" to-layer="2019" to-port="0"/>
		<edge from-layer="2018" from-port="1" to-layer="2019" to-port="1"/>
		<edge from-layer="2019" from-port="2" to-layer="2021" to-port="0"/>
		<edge from-layer="2020" from-port="0" to-layer="2021" to-port="1"/>
		<edge from-layer="2021" from-port="2" to-layer="2022" to-port="1"/>
		<edge from-layer="2022" from-port="2" to-layer="2024" to-port="0"/>
		<edge from-layer="2023" from-port="0" to-layer="2024" to-port="1"/>
		<edge from-layer="2024" from-port="2" to-layer="2026" to-port="0"/>
		<edge from-layer="2025" from-port="0" to-layer="2026" to-port="1"/>
		<edge from-layer="2026" from-port="2" to-layer="2027" to-port="3"/>
		<edge from-layer="2027" from-port="4" to-layer="2028" to-port="0"/>
		<edge from-layer="2028" from-port="2" to-layer="2458" to-port="3"/>
		<edge from-layer="2029" from-port="0" to-layer="2130" to-port="0"/>
		<edge from-layer="2030" from-port="0" to-layer="2092" to-port="0"/>
		<edge from-layer="2031" from-port="1" to-layer="2033" to-port="0"/>
		<edge from-layer="2032" from-port="0" to-layer="2033" to-port="1"/>
		<edge from-layer="2033" from-port="2" to-layer="2035" to-port="0"/>
		<edge from-layer="2034" from-port="0" to-layer="2035" to-port="1"/>
		<edge from-layer="2035" from-port="2" to-layer="2141" to-port="0"/>
		<edge from-layer="2035" from-port="2" to-layer="2036" to-port="0"/>
		<edge from-layer="2036" from-port="2" to-layer="2041" to-port="0"/>
		<edge from-layer="2036" from-port="2" to-layer="2038" to-port="0"/>
		<edge from-layer="2037" from-port="0" to-layer="2038" to-port="1"/>
		<edge from-layer="2038" from-port="2" to-layer="2040" to-port="0"/>
		<edge from-layer="2039" from-port="0" to-layer="2040" to-port="1"/>
		<edge from-layer="2040" from-port="2" to-layer="2042" to-port="0"/>
		<edge from-layer="2041" from-port="1" to-layer="2042" to-port="1"/>
		<edge from-layer="2042" from-port="2" to-layer="2044" to-port="0"/>
		<edge from-layer="2043" from-port="0" to-layer="2044" to-port="1"/>
		<edge from-layer="2044" from-port="2" to-layer="2046" to-port="0"/>
		<edge from-layer="2045" from-port="0" to-layer="2046" to-port="1"/>
		<edge from-layer="2046" from-port="2" to-layer="2047" to-port="0"/>
		<edge from-layer="2047" from-port="1" to-layer="2048" to-port="0"/>
		<edge from-layer="2048" from-port="2" to-layer="2050" to-port="0"/>
		<edge from-layer="2048" from-port="2" to-layer="2053" to-port="0"/>
		<edge from-layer="2049" from-port="0" to-layer="2050" to-port="1"/>
		<edge from-layer="2050" from-port="2" to-layer="2052" to-port="0"/>
		<edge from-layer="2051" from-port="0" to-layer="2052" to-port="1"/>
		<edge from-layer="2052" from-port="2" to-layer="2054" to-port="0"/>
		<edge from-layer="2053" from-port="1" to-layer="2054" to-port="1"/>
		<edge from-layer="2054" from-port="2" to-layer="2056" to-port="0"/>
		<edge from-layer="2055" from-port="0" to-layer="2056" to-port="1"/>
		<edge from-layer="2056" from-port="2" to-layer="2058" to-port="0"/>
		<edge from-layer="2057" from-port="0" to-layer="2058" to-port="1"/>
		<edge from-layer="2058" from-port="2" to-layer="2059" to-port="0"/>
		<edge from-layer="2059" from-port="1" to-layer="2060" to-port="0"/>
		<edge from-layer="2060" from-port="2" to-layer="2065" to-port="0"/>
		<edge from-layer="2060" from-port="2" to-layer="2062" to-port="0"/>
		<edge from-layer="2061" from-port="0" to-layer="2062" to-port="1"/>
		<edge from-layer="2062" from-port="2" to-layer="2064" to-port="0"/>
		<edge from-layer="2063" from-port="0" to-layer="2064" to-port="1"/>
		<edge from-layer="2064" from-port="2" to-layer="2066" to-port="0"/>
		<edge from-layer="2065" from-port="1" to-layer="2066" to-port="1"/>
		<edge from-layer="2066" from-port="2" to-layer="2068" to-port="0"/>
		<edge from-layer="2067" from-port="0" to-layer="2068" to-port="1"/>
		<edge from-layer="2068" from-port="2" to-layer="2070" to-port="0"/>
		<edge from-layer="2069" from-port="0" to-layer="2070" to-port="1"/>
		<edge from-layer="2070" from-port="2" to-layer="2071" to-port="0"/>
		<edge from-layer="2071" from-port="1" to-layer="2072" to-port="0"/>
		<edge from-layer="2072" from-port="2" to-layer="2074" to-port="0"/>
		<edge from-layer="2072" from-port="2" to-layer="2077" to-port="0"/>
		<edge from-layer="2073" from-port="0" to-layer="2074" to-port="1"/>
		<edge from-layer="2074" from-port="2" to-layer="2076" to-port="0"/>
		<edge from-layer="2075" from-port="0" to-layer="2076" to-port="1"/>
		<edge from-layer="2076" from-port="2" to-layer="2078" to-port="0"/>
		<edge from-layer="2077" from-port="1" to-layer="2078" to-port="1"/>
		<edge from-layer="2078" from-port="2" to-layer="2080" to-port="0"/>
		<edge from-layer="2079" from-port="0" to-layer="2080" to-port="1"/>
		<edge from-layer="2080" from-port="2" to-layer="2082" to-port="0"/>
		<edge from-layer="2081" from-port="0" to-layer="2082" to-port="1"/>
		<edge from-layer="2082" from-port="2" to-layer="2083" to-port="0"/>
		<edge from-layer="2083" from-port="1" to-layer="2084" to-port="0"/>
		<edge from-layer="2084" from-port="2" to-layer="2086" to-port="0"/>
		<edge from-layer="2085" from-port="0" to-layer="2086" to-port="1"/>
		<edge from-layer="2086" from-port="2" to-layer="2135" to-port="0"/>
		<edge from-layer="2086" from-port="2" to-layer="2087" to-port="0"/>
		<edge from-layer="2087" from-port="1" to-layer="2104" to-port="0"/>
		<edge from-layer="2087" from-port="1" to-layer="2090" to-port="0"/>
		<edge from-layer="2088" from-port="0" to-layer="2090" to-port="1"/>
		<edge from-layer="2089" from-port="0" to-layer="2090" to-port="2"/>
		<edge from-layer="2090" from-port="3" to-layer="2092" to-port="1"/>
		<edge from-layer="2091" from-port="0" to-layer="2092" to-port="2"/>
		<edge from-layer="2092" from-port="3" to-layer="2094" to-port="0"/>
		<edge from-layer="2093" from-port="0" to-layer="2094" to-port="1"/>
		<edge from-layer="2094" from-port="2" to-layer="2096" to-port="0"/>
		<edge from-layer="2095" from-port="0" to-layer="2096" to-port="1"/>
		<edge from-layer="2096" from-port="2" to-layer="2100" to-port="0"/>
		<edge from-layer="2096" from-port="2" to-layer="2098" to-port="0"/>
		<edge from-layer="2097" from-port="0" to-layer="2099" to-port="0"/>
		<edge from-layer="2098" from-port="1" to-layer="2112" to-port="1"/>
		<edge from-layer="2098" from-port="1" to-layer="2099" to-port="1"/>
		<edge from-layer="2099" from-port="2" to-layer="2100" to-port="1"/>
		<edge from-layer="2100" from-port="2" to-layer="2113" to-port="0"/>
		<edge from-layer="2101" from-port="0" to-layer="2106" to-port="0"/>
		<edge from-layer="2102" from-port="0" to-layer="2104" to-port="1"/>
		<edge from-layer="2103" from-port="0" to-layer="2104" to-port="2"/>
		<edge from-layer="2104" from-port="3" to-layer="2106" to-port="1"/>
		<edge from-layer="2105" from-port="0" to-layer="2106" to-port="2"/>
		<edge from-layer="2106" from-port="3" to-layer="2108" to-port="0"/>
		<edge from-layer="2107" from-port="0" to-layer="2108" to-port="1"/>
		<edge from-layer="2108" from-port="2" to-layer="2110" to-port="0"/>
		<edge from-layer="2109" from-port="0" to-layer="2110" to-port="1"/>
		<edge from-layer="2110" from-port="2" to-layer="2118" to-port="0"/>
		<edge from-layer="2110" from-port="2" to-layer="2111" to-port="0"/>
		<edge from-layer="2111" from-port="1" to-layer="2117" to-port="0"/>
		<edge from-layer="2111" from-port="1" to-layer="2112" to-port="0"/>
		<edge from-layer="2112" from-port="2" to-layer="2119" to-port="1"/>
		<edge from-layer="2112" from-port="2" to-layer="2113" to-port="1"/>
		<edge from-layer="2113" from-port="2" to-layer="2123" to-port="0"/>
		<edge from-layer="2113" from-port="2" to-layer="2115" to-port="0"/>
		<edge from-layer="2114" from-port="0" to-layer="2115" to-port="1"/>
		<edge from-layer="2115" from-port="2" to-layer="2126" to-port="0"/>
		<edge from-layer="2116" from-port="0" to-layer="2117" to-port="1"/>
		<edge from-layer="2117" from-port="2" to-layer="2118" to-port="1"/>
		<edge from-layer="2118" from-port="2" to-layer="2119" to-port="0"/>
		<edge from-layer="2119" from-port="2" to-layer="2121" to-port="0"/>
		<edge from-layer="2119" from-port="2" to-layer="2125" to-port="0"/>
		<edge from-layer="2120" from-port="0" to-layer="2121" to-port="1"/>
		<edge from-layer="2121" from-port="2" to-layer="2126" to-port="1"/>
		<edge from-layer="2122" from-port="0" to-layer="2123" to-port="1"/>
		<edge from-layer="2123" from-port="2" to-layer="2126" to-port="2"/>
		<edge from-layer="2124" from-port="0" to-layer="2125" to-port="1"/>
		<edge from-layer="2125" from-port="2" to-layer="2126" to-port="3"/>
		<edge from-layer="2126" from-port="4" to-layer="2128" to-port="0"/>
		<edge from-layer="2127" from-port="0" to-layer="2128" to-port="1"/>
		<edge from-layer="2128" from-port="2" to-layer="2129" to-port="0"/>
		<edge from-layer="2129" from-port="1" to-layer="2130" to-port="1"/>
		<edge from-layer="2130" from-port="2" to-layer="2132" to-port="0"/>
		<edge from-layer="2131" from-port="0" to-layer="2132" to-port="1"/>
		<edge from-layer="2132" from-port="2" to-layer="2223" to-port="0"/>
		<edge from-layer="2133" from-port="0" to-layer="2135" to-port="1"/>
		<edge from-layer="2134" from-port="0" to-layer="2135" to-port="2"/>
		<edge from-layer="2135" from-port="3" to-layer="2137" to-port="0"/>
		<edge from-layer="2136" from-port="0" to-layer="2137" to-port="1"/>
		<edge from-layer="2137" from-port="2" to-layer="2139" to-port="0"/>
		<edge from-layer="2138" from-port="0" to-layer="2139" to-port="1"/>
		<edge from-layer="2139" from-port="2" to-layer="2140" to-port="0"/>
		<edge from-layer="2140" from-port="1" to-layer="2470" to-port="0"/>
		<edge from-layer="2140" from-port="1" to-layer="2205" to-port="0"/>
		<edge from-layer="2141" from-port="2" to-layer="2143" to-port="0"/>
		<edge from-layer="2141" from-port="2" to-layer="2146" to-port="0"/>
		<edge from-layer="2142" from-port="0" to-layer="2143" to-port="1"/>
		<edge from-layer="2143" from-port="2" to-layer="2145" to-port="0"/>
		<edge from-layer="2144" from-port="0" to-layer="2145" to-port="1"/>
		<edge from-layer="2145" from-port="2" to-layer="2147" to-port="0"/>
		<edge from-layer="2146" from-port="1" to-layer="2147" to-port="1"/>
		<edge from-layer="2147" from-port="2" to-layer="2149" to-port="0"/>
		<edge from-layer="2148" from-port="0" to-layer="2149" to-port="1"/>
		<edge from-layer="2149" from-port="2" to-layer="2151" to-port="0"/>
		<edge from-layer="2150" from-port="0" to-layer="2151" to-port="1"/>
		<edge from-layer="2151" from-port="2" to-layer="2152" to-port="0"/>
		<edge from-layer="2152" from-port="1" to-layer="2153" to-port="0"/>
		<edge from-layer="2153" from-port="2" to-layer="2158" to-port="0"/>
		<edge from-layer="2153" from-port="2" to-layer="2155" to-port="0"/>
		<edge from-layer="2154" from-port="0" to-layer="2155" to-port="1"/>
		<edge from-layer="2155" from-port="2" to-layer="2157" to-port="0"/>
		<edge from-layer="2156" from-port="0" to-layer="2157" to-port="1"/>
		<edge from-layer="2157" from-port="2" to-layer="2159" to-port="0"/>
		<edge from-layer="2158" from-port="1" to-layer="2159" to-port="1"/>
		<edge from-layer="2159" from-port="2" to-layer="2161" to-port="0"/>
		<edge from-layer="2160" from-port="0" to-layer="2161" to-port="1"/>
		<edge from-layer="2161" from-port="2" to-layer="2163" to-port="0"/>
		<edge from-layer="2162" from-port="0" to-layer="2163" to-port="1"/>
		<edge from-layer="2163" from-port="2" to-layer="2164" to-port="0"/>
		<edge from-layer="2164" from-port="1" to-layer="2165" to-port="0"/>
		<edge from-layer="2165" from-port="2" to-layer="2167" to-port="0"/>
		<edge from-layer="2165" from-port="2" to-layer="2170" to-port="0"/>
		<edge from-layer="2166" from-port="0" to-layer="2167" to-port="1"/>
		<edge from-layer="2167" from-port="2" to-layer="2169" to-port="0"/>
		<edge from-layer="2168" from-port="0" to-layer="2169" to-port="1"/>
		<edge from-layer="2169" from-port="2" to-layer="2171" to-port="0"/>
		<edge from-layer="2170" from-port="1" to-layer="2171" to-port="1"/>
		<edge from-layer="2171" from-port="2" to-layer="2173" to-port="0"/>
		<edge from-layer="2172" from-port="0" to-layer="2173" to-port="1"/>
		<edge from-layer="2173" from-port="2" to-layer="2175" to-port="0"/>
		<edge from-layer="2174" from-port="0" to-layer="2175" to-port="1"/>
		<edge from-layer="2175" from-port="2" to-layer="2176" to-port="0"/>
		<edge from-layer="2176" from-port="1" to-layer="2177" to-port="0"/>
		<edge from-layer="2177" from-port="2" to-layer="2182" to-port="0"/>
		<edge from-layer="2177" from-port="2" to-layer="2179" to-port="0"/>
		<edge from-layer="2178" from-port="0" to-layer="2179" to-port="1"/>
		<edge from-layer="2179" from-port="2" to-layer="2181" to-port="0"/>
		<edge from-layer="2180" from-port="0" to-layer="2181" to-port="1"/>
		<edge from-layer="2181" from-port="2" to-layer="2183" to-port="0"/>
		<edge from-layer="2182" from-port="1" to-layer="2183" to-port="1"/>
		<edge from-layer="2183" from-port="2" to-layer="2185" to-port="0"/>
		<edge from-layer="2184" from-port="0" to-layer="2185" to-port="1"/>
		<edge from-layer="2185" from-port="2" to-layer="2187" to-port="0"/>
		<edge from-layer="2186" from-port="0" to-layer="2187" to-port="1"/>
		<edge from-layer="2187" from-port="2" to-layer="2188" to-port="0"/>
		<edge from-layer="2188" from-port="1" to-layer="2236" to-port="0"/>
		<edge from-layer="2188" from-port="1" to-layer="2189" to-port="0"/>
		<edge from-layer="2189" from-port="2" to-layer="2191" to-port="0"/>
		<edge from-layer="2190" from-port="0" to-layer="2191" to-port="1"/>
		<edge from-layer="2191" from-port="2" to-layer="2194" to-port="0"/>
		<edge from-layer="2192" from-port="0" to-layer="2194" to-port="1"/>
		<edge from-layer="2193" from-port="0" to-layer="2194" to-port="2"/>
		<edge from-layer="2194" from-port="3" to-layer="2199" to-port="0"/>
		<edge from-layer="2194" from-port="3" to-layer="2195" to-port="0"/>
		<edge from-layer="2195" from-port="1" to-layer="2198" to-port="0"/>
		<edge from-layer="2196" from-port="0" to-layer="2198" to-port="1"/>
		<edge from-layer="2197" from-port="0" to-layer="2198" to-port="2"/>
		<edge from-layer="2198" from-port="3" to-layer="2199" to-port="1"/>
		<edge from-layer="2199" from-port="2" to-layer="2201" to-port="0"/>
		<edge from-layer="2200" from-port="0" to-layer="2201" to-port="1"/>
		<edge from-layer="2201" from-port="2" to-layer="2202" to-port="0"/>
		<edge from-layer="2202" from-port="1" to-layer="2204" to-port="0"/>
		<edge from-layer="2202" from-port="1" to-layer="2481" to-port="0"/>
		<edge from-layer="2203" from-port="0" to-layer="2204" to-port="1"/>
		<edge from-layer="2204" from-port="2" to-layer="2205" to-port="1"/>
		<edge from-layer="2205" from-port="2" to-layer="2207" to-port="0"/>
		<edge from-layer="2206" from-port="0" to-layer="2207" to-port="1"/>
		<edge from-layer="2207" from-port="2" to-layer="2209" to-port="0"/>
		<edge from-layer="2207" from-port="2" to-layer="2221" to-port="0"/>
		<edge from-layer="2208" from-port="0" to-layer="2210" to-port="0"/>
		<edge from-layer="2209" from-port="1" to-layer="2210" to-port="1"/>
		<edge from-layer="2210" from-port="2" to-layer="2211" to-port="0"/>
		<edge from-layer="2211" from-port="1" to-layer="2213" to-port="0"/>
		<edge from-layer="2212" from-port="0" to-layer="2213" to-port="1"/>
		<edge from-layer="2213" from-port="2" to-layer="2214" to-port="0"/>
		<edge from-layer="2214" from-port="1" to-layer="2216" to-port="0"/>
		<edge from-layer="2215" from-port="0" to-layer="2216" to-port="1"/>
		<edge from-layer="2216" from-port="2" to-layer="2218" to-port="0"/>
		<edge from-layer="2217" from-port="0" to-layer="2218" to-port="1"/>
		<edge from-layer="2218" from-port="2" to-layer="2220" to-port="0"/>
		<edge from-layer="2219" from-port="0" to-layer="2220" to-port="1"/>
		<edge from-layer="2220" from-port="2" to-layer="2221" to-port="1"/>
		<edge from-layer="2221" from-port="3" to-layer="2470" to-port="1"/>
		<edge from-layer="2221" from-port="3" to-layer="2223" to-port="1"/>
		<edge from-layer="2221" from-port="3" to-layer="2481" to-port="1"/>
		<edge from-layer="2221" from-port="3" to-layer="2247" to-port="1"/>
		<edge from-layer="2222" from-port="0" to-layer="2223" to-port="2"/>
		<edge from-layer="2223" from-port="3" to-layer="2331" to-port="0"/>
		<edge from-layer="2223" from-port="3" to-layer="2334" to-port="0"/>
		<edge from-layer="2223" from-port="3" to-layer="2351" to-port="0"/>
		<edge from-layer="2223" from-port="3" to-layer="2348" to-port="0"/>
		<edge from-layer="2223" from-port="3" to-layer="2226" to-port="0"/>
		<edge from-layer="2223" from-port="3" to-layer="2284" to-port="0"/>
		<edge from-layer="2223" from-port="3" to-layer="2281" to-port="0"/>
		<edge from-layer="2223" from-port="3" to-layer="2229" to-port="0"/>
		<edge from-layer="2224" from-port="0" to-layer="2226" to-port="1"/>
		<edge from-layer="2225" from-port="0" to-layer="2226" to-port="2"/>
		<edge from-layer="2226" from-port="3" to-layer="2230" to-port="0"/>
		<edge from-layer="2227" from-port="0" to-layer="2229" to-port="1"/>
		<edge from-layer="2228" from-port="0" to-layer="2229" to-port="2"/>
		<edge from-layer="2229" from-port="3" to-layer="2230" to-port="1"/>
		<edge from-layer="2230" from-port="2" to-layer="2232" to-port="0"/>
		<edge from-layer="2231" from-port="0" to-layer="2232" to-port="1"/>
		<edge from-layer="2232" from-port="2" to-layer="2234" to-port="0"/>
		<edge from-layer="2233" from-port="0" to-layer="2234" to-port="1"/>
		<edge from-layer="2234" from-port="2" to-layer="2278" to-port="0"/>
		<edge from-layer="2235" from-port="0" to-layer="2236" to-port="1"/>
		<edge from-layer="2236" from-port="2" to-layer="2238" to-port="0"/>
		<edge from-layer="2237" from-port="0" to-layer="2238" to-port="1"/>
		<edge from-layer="2238" from-port="2" to-layer="2241" to-port="0"/>
		<edge from-layer="2239" from-port="0" to-layer="2241" to-port="1"/>
		<edge from-layer="2240" from-port="0" to-layer="2241" to-port="2"/>
		<edge from-layer="2241" from-port="3" to-layer="2243" to-port="0"/>
		<edge from-layer="2242" from-port="0" to-layer="2243" to-port="1"/>
		<edge from-layer="2243" from-port="2" to-layer="2245" to-port="0"/>
		<edge from-layer="2244" from-port="0" to-layer="2245" to-port="1"/>
		<edge from-layer="2245" from-port="2" to-layer="2247" to-port="0"/>
		<edge from-layer="2246" from-port="0" to-layer="2247" to-port="2"/>
		<edge from-layer="2247" from-port="3" to-layer="2260" to-port="0"/>
		<edge from-layer="2247" from-port="3" to-layer="2250" to-port="0"/>
		<edge from-layer="2248" from-port="0" to-layer="2259" to-port="0"/>
		<edge from-layer="2249" from-port="0" to-layer="2258" to-port="0"/>
		<edge from-layer="2250" from-port="1" to-layer="2265" to-port="0"/>
		<edge from-layer="2250" from-port="1" to-layer="2457" to-port="1"/>
		<edge from-layer="2250" from-port="1" to-layer="2253" to-port="0"/>
		<edge from-layer="2251" from-port="0" to-layer="2253" to-port="1"/>
		<edge from-layer="2252" from-port="0" to-layer="2253" to-port="2"/>
		<edge from-layer="2253" from-port="3" to-layer="2255" to-port="0"/>
		<edge from-layer="2254" from-port="0" to-layer="2255" to-port="1"/>
		<edge from-layer="2255" from-port="2" to-layer="2257" to-port="0"/>
		<edge from-layer="2256" from-port="0" to-layer="2257" to-port="1"/>
		<edge from-layer="2257" from-port="2" to-layer="2258" to-port="1"/>
		<edge from-layer="2258" from-port="2" to-layer="2259" to-port="1"/>
		<edge from-layer="2259" from-port="2" to-layer="2260" to-port="1"/>
		<edge from-layer="2260" from-port="2" to-layer="2272" to-port="0"/>
		<edge from-layer="2261" from-port="0" to-layer="2271" to-port="0"/>
		<edge from-layer="2262" from-port="0" to-layer="2270" to-port="0"/>
		<edge from-layer="2263" from-port="0" to-layer="2265" to-port="1"/>
		<edge from-layer="2264" from-port="0" to-layer="2265" to-port="2"/>
		<edge from-layer="2265" from-port="3" to-layer="2267" to-port="0"/>
		<edge from-layer="2266" from-port="0" to-layer="2267" to-port="1"/>
		<edge from-layer="2267" from-port="2" to-layer="2269" to-port="0"/>
		<edge from-layer="2268" from-port="0" to-layer="2269" to-port="1"/>
		<edge from-layer="2269" from-port="2" to-layer="2270" to-port="1"/>
		<edge from-layer="2270" from-port="2" to-layer="2271" to-port="1"/>
		<edge from-layer="2271" from-port="2" to-layer="2272" to-port="1"/>
		<edge from-layer="2272" from-port="2" to-layer="2343" to-port="0"/>
		<edge from-layer="2272" from-port="2" to-layer="2291" to-port="0"/>
		<edge from-layer="2272" from-port="2" to-layer="2276" to-port="0"/>
		<edge from-layer="2272" from-port="2" to-layer="2358" to-port="0"/>
		<edge from-layer="2273" from-port="0" to-layer="2276" to-port="1"/>
		<edge from-layer="2274" from-port="0" to-layer="2276" to-port="2"/>
		<edge from-layer="2275" from-port="0" to-layer="2276" to-port="3"/>
		<edge from-layer="2276" from-port="4" to-layer="2295" to-port="1"/>
		<edge from-layer="2276" from-port="4" to-layer="2277" to-port="0"/>
		<edge from-layer="2277" from-port="1" to-layer="2278" to-port="1"/>
		<edge from-layer="2278" from-port="2" to-layer="2296" to-port="0"/>
		<edge from-layer="2279" from-port="0" to-layer="2281" to-port="1"/>
		<edge from-layer="2280" from-port="0" to-layer="2281" to-port="2"/>
		<edge from-layer="2281" from-port="3" to-layer="2285" to-port="0"/>
		<edge from-layer="2282" from-port="0" to-layer="2284" to-port="1"/>
		<edge from-layer="2283" from-port="0" to-layer="2284" to-port="2"/>
		<edge from-layer="2284" from-port="3" to-layer="2285" to-port="1"/>
		<edge from-layer="2285" from-port="2" to-layer="2287" to-port="0"/>
		<edge from-layer="2286" from-port="0" to-layer="2287" to-port="1"/>
		<edge from-layer="2287" from-port="2" to-layer="2294" to-port="0"/>
		<edge from-layer="2288" from-port="0" to-layer="2291" to-port="1"/>
		<edge from-layer="2289" from-port="0" to-layer="2291" to-port="2"/>
		<edge from-layer="2290" from-port="0" to-layer="2291" to-port="3"/>
		<edge from-layer="2291" from-port="4" to-layer="2292" to-port="0"/>
		<edge from-layer="2292" from-port="1" to-layer="2293" to-port="0"/>
		<edge from-layer="2292" from-port="1" to-layer="2297" to-port="0"/>
		<edge from-layer="2293" from-port="1" to-layer="2294" to-port="1"/>
		<edge from-layer="2294" from-port="2" to-layer="2295" to-port="0"/>
		<edge from-layer="2294" from-port="2" to-layer="2298" to-port="0"/>
		<edge from-layer="2295" from-port="2" to-layer="2296" to-port="1"/>
		<edge from-layer="2296" from-port="2" to-layer="2398" to-port="0"/>
		<edge from-layer="2296" from-port="2" to-layer="2301" to-port="0"/>
		<edge from-layer="2297" from-port="1" to-layer="2298" to-port="1"/>
		<edge from-layer="2298" from-port="2" to-layer="2397" to-port="0"/>
		<edge from-layer="2298" from-port="2" to-layer="2300" to-port="0"/>
		<edge from-layer="2299" from-port="0" to-layer="2300" to-port="1"/>
		<edge from-layer="2300" from-port="2" to-layer="2301" to-port="1"/>
		<edge from-layer="2301" from-port="2" to-layer="2305" to-port="0"/>
		<edge from-layer="2301" from-port="2" to-layer="2303" to-port="0"/>
		<edge from-layer="2302" from-port="0" to-layer="2303" to-port="1"/>
		<edge from-layer="2303" from-port="2" to-layer="2309" to-port="0"/>
		<edge from-layer="2304" from-port="0" to-layer="2306" to-port="0"/>
		<edge from-layer="2305" from-port="1" to-layer="2306" to-port="1"/>
		<edge from-layer="2306" from-port="2" to-layer="2308" to-port="0"/>
		<edge from-layer="2307" from-port="0" to-layer="2308" to-port="1"/>
		<edge from-layer="2308" from-port="2" to-layer="2309" to-port="1"/>
		<edge from-layer="2309" from-port="2" to-layer="2311" to-port="0"/>
		<edge from-layer="2310" from-port="0" to-layer="2311" to-port="1"/>
		<edge from-layer="2311" from-port="2" to-layer="2313" to-port="0"/>
		<edge from-layer="2311" from-port="2" to-layer="2320" to-port="0"/>
		<edge from-layer="2312" from-port="0" to-layer="2313" to-port="1"/>
		<edge from-layer="2313" from-port="2" to-layer="2324" to-port="0"/>
		<edge from-layer="2314" from-port="0" to-layer="2316" to-port="1"/>
		<edge from-layer="2315" from-port="0" to-layer="2316" to-port="2"/>
		<edge from-layer="2316" from-port="3" to-layer="2317" to-port="0"/>
		<edge from-layer="2317" from-port="1" to-layer="2319" to-port="0"/>
		<edge from-layer="2318" from-port="0" to-layer="2319" to-port="1"/>
		<edge from-layer="2319" from-port="2" to-layer="2321" to-port="0"/>
		<edge from-layer="2320" from-port="1" to-layer="2321" to-port="1"/>
		<edge from-layer="2321" from-port="2" to-layer="2323" to-port="0"/>
		<edge from-layer="2322" from-port="0" to-layer="2323" to-port="1"/>
		<edge from-layer="2323" from-port="2" to-layer="2324" to-port="1"/>
		<edge from-layer="2324" from-port="2" to-layer="2326" to-port="0"/>
		<edge from-layer="2325" from-port="0" to-layer="2326" to-port="1"/>
		<edge from-layer="2326" from-port="2" to-layer="2328" to-port="0"/>
		<edge from-layer="2327" from-port="0" to-layer="2328" to-port="1"/>
		<edge from-layer="2328" from-port="2" to-layer="2456" to-port="0"/>
		<edge from-layer="2329" from-port="0" to-layer="2331" to-port="1"/>
		<edge from-layer="2330" from-port="0" to-layer="2331" to-port="2"/>
		<edge from-layer="2331" from-port="3" to-layer="2335" to-port="0"/>
		<edge from-layer="2332" from-port="0" to-layer="2334" to-port="1"/>
		<edge from-layer="2333" from-port="0" to-layer="2334" to-port="2"/>
		<edge from-layer="2334" from-port="3" to-layer="2335" to-port="1"/>
		<edge from-layer="2335" from-port="2" to-layer="2337" to-port="0"/>
		<edge from-layer="2336" from-port="0" to-layer="2337" to-port="1"/>
		<edge from-layer="2337" from-port="2" to-layer="2339" to-port="0"/>
		<edge from-layer="2338" from-port="0" to-layer="2339" to-port="1"/>
		<edge from-layer="2339" from-port="2" to-layer="2345" to-port="0"/>
		<edge from-layer="2340" from-port="0" to-layer="2343" to-port="1"/>
		<edge from-layer="2341" from-port="0" to-layer="2343" to-port="2"/>
		<edge from-layer="2342" from-port="0" to-layer="2343" to-port="3"/>
		<edge from-layer="2343" from-port="4" to-layer="2362" to-port="1"/>
		<edge from-layer="2343" from-port="4" to-layer="2344" to-port="0"/>
		<edge from-layer="2344" from-port="1" to-layer="2345" to-port="1"/>
		<edge from-layer="2345" from-port="2" to-layer="2363" to-port="0"/>
		<edge from-layer="2346" from-port="0" to-layer="2348" to-port="1"/>
		<edge from-layer="2347" from-port="0" to-layer="2348" to-port="2"/>
		<edge from-layer="2348" from-port="3" to-layer="2352" to-port="0"/>
		<edge from-layer="2349" from-port="0" to-layer="2351" to-port="1"/>
		<edge from-layer="2350" from-port="0" to-layer="2351" to-port="2"/>
		<edge from-layer="2351" from-port="3" to-layer="2352" to-port="1"/>
		<edge from-layer="2352" from-port="2" to-layer="2354" to-port="0"/>
		<edge from-layer="2353" from-port="0" to-layer="2354" to-port="1"/>
		<edge from-layer="2354" from-port="2" to-layer="2361" to-port="0"/>
		<edge from-layer="2355" from-port="0" to-layer="2358" to-port="1"/>
		<edge from-layer="2356" from-port="0" to-layer="2358" to-port="2"/>
		<edge from-layer="2357" from-port="0" to-layer="2358" to-port="3"/>
		<edge from-layer="2358" from-port="4" to-layer="2359" to-port="0"/>
		<edge from-layer="2359" from-port="1" to-layer="2364" to-port="0"/>
		<edge from-layer="2359" from-port="1" to-layer="2360" to-port="0"/>
		<edge from-layer="2360" from-port="1" to-layer="2361" to-port="1"/>
		<edge from-layer="2361" from-port="2" to-layer="2362" to-port="0"/>
		<edge from-layer="2361" from-port="2" to-layer="2365" to-port="0"/>
		<edge from-layer="2362" from-port="2" to-layer="2363" to-port="1"/>
		<edge from-layer="2363" from-port="2" to-layer="2428" to-port="0"/>
		<edge from-layer="2363" from-port="2" to-layer="2368" to-port="0"/>
		<edge from-layer="2364" from-port="1" to-layer="2365" to-port="1"/>
		<edge from-layer="2365" from-port="2" to-layer="2427" to-port="0"/>
		<edge from-layer="2365" from-port="2" to-layer="2367" to-port="0"/>
		<edge from-layer="2366" from-port="0" to-layer="2367" to-port="1"/>
		<edge from-layer="2367" from-port="2" to-layer="2368" to-port="1"/>
		<edge from-layer="2368" from-port="2" to-layer="2370" to-port="0"/>
		<edge from-layer="2368" from-port="2" to-layer="2372" to-port="0"/>
		<edge from-layer="2369" from-port="0" to-layer="2370" to-port="1"/>
		<edge from-layer="2370" from-port="2" to-layer="2376" to-port="0"/>
		<edge from-layer="2371" from-port="0" to-layer="2373" to-port="0"/>
		<edge from-layer="2372" from-port="1" to-layer="2373" to-port="1"/>
		<edge from-layer="2373" from-port="2" to-layer="2375" to-port="0"/>
		<edge from-layer="2374" from-port="0" to-layer="2375" to-port="1"/>
		<edge from-layer="2375" from-port="2" to-layer="2376" to-port="1"/>
		<edge from-layer="2376" from-port="2" to-layer="2378" to-port="0"/>
		<edge from-layer="2377" from-port="0" to-layer="2378" to-port="1"/>
		<edge from-layer="2378" from-port="2" to-layer="2387" to-port="0"/>
		<edge from-layer="2378" from-port="2" to-layer="2380" to-port="0"/>
		<edge from-layer="2379" from-port="0" to-layer="2380" to-port="1"/>
		<edge from-layer="2380" from-port="2" to-layer="2391" to-port="0"/>
		<edge from-layer="2381" from-port="0" to-layer="2383" to-port="1"/>
		<edge from-layer="2382" from-port="0" to-layer="2383" to-port="2"/>
		<edge from-layer="2383" from-port="3" to-layer="2384" to-port="0"/>
		<edge from-layer="2384" from-port="1" to-layer="2386" to-port="0"/>
		<edge from-layer="2385" from-port="0" to-layer="2386" to-port="1"/>
		<edge from-layer="2386" from-port="2" to-layer="2388" to-port="0"/>
		<edge from-layer="2387" from-port="1" to-layer="2388" to-port="1"/>
		<edge from-layer="2388" from-port="2" to-layer="2390" to-port="0"/>
		<edge from-layer="2389" from-port="0" to-layer="2390" to-port="1"/>
		<edge from-layer="2390" from-port="2" to-layer="2391" to-port="1"/>
		<edge from-layer="2391" from-port="2" to-layer="2393" to-port="0"/>
		<edge from-layer="2392" from-port="0" to-layer="2393" to-port="1"/>
		<edge from-layer="2393" from-port="2" to-layer="2395" to-port="0"/>
		<edge from-layer="2394" from-port="0" to-layer="2395" to-port="1"/>
		<edge from-layer="2395" from-port="2" to-layer="2456" to-port="1"/>
		<edge from-layer="2396" from-port="0" to-layer="2397" to-port="1"/>
		<edge from-layer="2397" from-port="2" to-layer="2398" to-port="1"/>
		<edge from-layer="2398" from-port="2" to-layer="2400" to-port="0"/>
		<edge from-layer="2398" from-port="2" to-layer="2402" to-port="0"/>
		<edge from-layer="2399" from-port="0" to-layer="2400" to-port="1"/>
		<edge from-layer="2400" from-port="2" to-layer="2406" to-port="0"/>
		<edge from-layer="2401" from-port="0" to-layer="2403" to-port="0"/>
		<edge from-layer="2402" from-port="1" to-layer="2403" to-port="1"/>
		<edge from-layer="2403" from-port="2" to-layer="2405" to-port="0"/>
		<edge from-layer="2404" from-port="0" to-layer="2405" to-port="1"/>
		<edge from-layer="2405" from-port="2" to-layer="2406" to-port="1"/>
		<edge from-layer="2406" from-port="2" to-layer="2408" to-port="0"/>
		<edge from-layer="2407" from-port="0" to-layer="2408" to-port="1"/>
		<edge from-layer="2408" from-port="2" to-layer="2417" to-port="0"/>
		<edge from-layer="2408" from-port="2" to-layer="2410" to-port="0"/>
		<edge from-layer="2409" from-port="0" to-layer="2410" to-port="1"/>
		<edge from-layer="2410" from-port="2" to-layer="2421" to-port="0"/>
		<edge from-layer="2411" from-port="0" to-layer="2413" to-port="1"/>
		<edge from-layer="2412" from-port="0" to-layer="2413" to-port="2"/>
		<edge from-layer="2413" from-port="3" to-layer="2414" to-port="0"/>
		<edge from-layer="2414" from-port="1" to-layer="2416" to-port="0"/>
		<edge from-layer="2415" from-port="0" to-layer="2416" to-port="1"/>
		<edge from-layer="2416" from-port="2" to-layer="2418" to-port="0"/>
		<edge from-layer="2417" from-port="1" to-layer="2418" to-port="1"/>
		<edge from-layer="2418" from-port="2" to-layer="2420" to-port="0"/>
		<edge from-layer="2419" from-port="0" to-layer="2420" to-port="1"/>
		<edge from-layer="2420" from-port="2" to-layer="2421" to-port="1"/>
		<edge from-layer="2421" from-port="2" to-layer="2423" to-port="0"/>
		<edge from-layer="2422" from-port="0" to-layer="2423" to-port="1"/>
		<edge from-layer="2423" from-port="2" to-layer="2425" to-port="0"/>
		<edge from-layer="2424" from-port="0" to-layer="2425" to-port="1"/>
		<edge from-layer="2425" from-port="2" to-layer="2456" to-port="2"/>
		<edge from-layer="2426" from-port="0" to-layer="2427" to-port="1"/>
		<edge from-layer="2427" from-port="2" to-layer="2428" to-port="1"/>
		<edge from-layer="2428" from-port="2" to-layer="2432" to-port="0"/>
		<edge from-layer="2428" from-port="2" to-layer="2430" to-port="0"/>
		<edge from-layer="2429" from-port="0" to-layer="2430" to-port="1"/>
		<edge from-layer="2430" from-port="2" to-layer="2436" to-port="0"/>
		<edge from-layer="2431" from-port="0" to-layer="2433" to-port="0"/>
		<edge from-layer="2432" from-port="1" to-layer="2433" to-port="1"/>
		<edge from-layer="2433" from-port="2" to-layer="2435" to-port="0"/>
		<edge from-layer="2434" from-port="0" to-layer="2435" to-port="1"/>
		<edge from-layer="2435" from-port="2" to-layer="2436" to-port="1"/>
		<edge from-layer="2436" from-port="2" to-layer="2438" to-port="0"/>
		<edge from-layer="2437" from-port="0" to-layer="2438" to-port="1"/>
		<edge from-layer="2438" from-port="2" to-layer="2447" to-port="0"/>
		<edge from-layer="2438" from-port="2" to-layer="2440" to-port="0"/>
		<edge from-layer="2439" from-port="0" to-layer="2440" to-port="1"/>
		<edge from-layer="2440" from-port="2" to-layer="2451" to-port="0"/>
		<edge from-layer="2441" from-port="0" to-layer="2443" to-port="1"/>
		<edge from-layer="2442" from-port="0" to-layer="2443" to-port="2"/>
		<edge from-layer="2443" from-port="3" to-layer="2444" to-port="0"/>
		<edge from-layer="2444" from-port="1" to-layer="2446" to-port="0"/>
		<edge from-layer="2445" from-port="0" to-layer="2446" to-port="1"/>
		<edge from-layer="2446" from-port="2" to-layer="2448" to-port="0"/>
		<edge from-layer="2447" from-port="1" to-layer="2448" to-port="1"/>
		<edge from-layer="2448" from-port="2" to-layer="2450" to-port="0"/>
		<edge from-layer="2449" from-port="0" to-layer="2450" to-port="1"/>
		<edge from-layer="2450" from-port="2" to-layer="2451" to-port="1"/>
		<edge from-layer="2451" from-port="2" to-layer="2453" to-port="0"/>
		<edge from-layer="2452" from-port="0" to-layer="2453" to-port="1"/>
		<edge from-layer="2453" from-port="2" to-layer="2455" to-port="0"/>
		<edge from-layer="2454" from-port="0" to-layer="2455" to-port="1"/>
		<edge from-layer="2455" from-port="2" to-layer="2456" to-port="3"/>
		<edge from-layer="2456" from-port="4" to-layer="2457" to-port="0"/>
		<edge from-layer="2457" from-port="2" to-layer="2458" to-port="4"/>
		<edge from-layer="2458" from-port="5" to-layer="2460" to-port="0"/>
		<edge from-layer="2459" from-port="0" to-layer="2460" to-port="1"/>
		<edge from-layer="2460" from-port="2" to-layer="2497" to-port="0"/>
		<edge from-layer="2461" from-port="0" to-layer="2462" to-port="2"/>
		<edge from-layer="2462" from-port="3" to-layer="2471" to-port="0"/>
		<edge from-layer="2463" from-port="0" to-layer="2464" to-port="2"/>
		<edge from-layer="2464" from-port="3" to-layer="2471" to-port="1"/>
		<edge from-layer="2465" from-port="0" to-layer="2466" to-port="2"/>
		<edge from-layer="2466" from-port="3" to-layer="2471" to-port="2"/>
		<edge from-layer="2467" from-port="0" to-layer="2468" to-port="2"/>
		<edge from-layer="2468" from-port="3" to-layer="2471" to-port="3"/>
		<edge from-layer="2469" from-port="0" to-layer="2470" to-port="2"/>
		<edge from-layer="2470" from-port="3" to-layer="2471" to-port="4"/>
		<edge from-layer="2471" from-port="5" to-layer="2487" to-port="0"/>
		<edge from-layer="2472" from-port="0" to-layer="2473" to-port="2"/>
		<edge from-layer="2473" from-port="3" to-layer="2482" to-port="0"/>
		<edge from-layer="2474" from-port="0" to-layer="2475" to-port="2"/>
		<edge from-layer="2475" from-port="3" to-layer="2482" to-port="1"/>
		<edge from-layer="2476" from-port="0" to-layer="2477" to-port="2"/>
		<edge from-layer="2477" from-port="3" to-layer="2482" to-port="2"/>
		<edge from-layer="2478" from-port="0" to-layer="2479" to-port="2"/>
		<edge from-layer="2479" from-port="3" to-layer="2482" to-port="3"/>
		<edge from-layer="2480" from-port="0" to-layer="2481" to-port="2"/>
		<edge from-layer="2481" from-port="3" to-layer="2482" to-port="4"/>
		<edge from-layer="2482" from-port="5" to-layer="2483" to-port="0"/>
		<edge from-layer="2482" from-port="5" to-layer="2486" to-port="0"/>
		<edge from-layer="2483" from-port="1" to-layer="2485" to-port="0"/>
		<edge from-layer="2484" from-port="0" to-layer="2485" to-port="1"/>
		<edge from-layer="2485" from-port="2" to-layer="2486" to-port="1"/>
		<edge from-layer="2486" from-port="2" to-layer="2487" to-port="1"/>
		<edge from-layer="2487" from-port="2" to-layer="2488" to-port="0"/>
		<edge from-layer="2487" from-port="2" to-layer="2523" to-port="0"/>
		<edge from-layer="2488" from-port="1" to-layer="2508" to-port="1"/>
		<edge from-layer="2488" from-port="1" to-layer="2503" to-port="0"/>
		<edge from-layer="2488" from-port="1" to-layer="2490" to-port="0"/>
		<edge from-layer="2489" from-port="0" to-layer="2490" to-port="1"/>
		<edge from-layer="2490" from-port="2" to-layer="2492" to-port="0"/>
		<edge from-layer="2491" from-port="0" to-layer="2492" to-port="1"/>
		<edge from-layer="2492" from-port="2" to-layer="2494" to-port="0"/>
		<edge from-layer="2492" from-port="2" to-layer="2496" to-port="2"/>
		<edge from-layer="2493" from-port="0" to-layer="2494" to-port="1"/>
		<edge from-layer="2494" from-port="2" to-layer="2496" to-port="0"/>
		<edge from-layer="2495" from-port="0" to-layer="2496" to-port="1"/>
		<edge from-layer="2496" from-port="3" to-layer="2497" to-port="1"/>
		<edge from-layer="2497" from-port="2" to-layer="2499" to-port="0"/>
		<edge from-layer="2498" from-port="0" to-layer="2499" to-port="1"/>
		<edge from-layer="2499" from-port="2" to-layer="2539" to-port="0"/>
		<edge from-layer="2499" from-port="2" to-layer="2519" to-port="0"/>
		<edge from-layer="2499" from-port="2" to-layer="2513" to-port="0"/>
		<edge from-layer="2500" from-port="0" to-layer="2505" to-port="0"/>
		<edge from-layer="2501" from-port="0" to-layer="2503" to-port="1"/>
		<edge from-layer="2502" from-port="0" to-layer="2503" to-port="2"/>
		<edge from-layer="2503" from-port="3" to-layer="2505" to-port="1"/>
		<edge from-layer="2504" from-port="0" to-layer="2505" to-port="2"/>
		<edge from-layer="2505" from-port="3" to-layer="2507" to-port="0"/>
		<edge from-layer="2506" from-port="0" to-layer="2507" to-port="1"/>
		<edge from-layer="2507" from-port="2" to-layer="2508" to-port="0"/>
		<edge from-layer="2508" from-port="2" to-layer="2510" to-port="0"/>
		<edge from-layer="2509" from-port="0" to-layer="2510" to-port="1"/>
		<edge from-layer="2510" from-port="2" to-layer="2557" to-port="0"/>
		<edge from-layer="2510" from-port="2" to-layer="2511" to-port="0"/>
		<edge from-layer="2511" from-port="1" to-layer="2516" to-port="0"/>
		<edge from-layer="2512" from-port="0" to-layer="2513" to-port="1"/>
		<edge from-layer="2513" from-port="2" to-layer="2515" to-port="0"/>
		<edge from-layer="2514" from-port="0" to-layer="2515" to-port="1"/>
		<edge from-layer="2515" from-port="2" to-layer="2516" to-port="1"/>
		<edge from-layer="2516" from-port="2" to-layer="2518" to-port="0"/>
		<edge from-layer="2517" from-port="0" to-layer="2518" to-port="1"/>
		<edge from-layer="2518" from-port="2" to-layer="2519" to-port="1"/>
		<edge from-layer="2519" from-port="2" to-layer="2521" to-port="0"/>
		<edge from-layer="2519" from-port="2" to-layer="2542" to-port="0"/>
		<edge from-layer="2520" from-port="0" to-layer="2521" to-port="1"/>
		<edge from-layer="2521" from-port="2" to-layer="2531" to-port="0"/>
		<edge from-layer="2522" from-port="0" to-layer="2523" to-port="1"/>
		<edge from-layer="2523" from-port="2" to-layer="2545" to-port="0"/>
		<edge from-layer="2523" from-port="2" to-layer="2525" to-port="0"/>
		<edge from-layer="2524" from-port="0" to-layer="2525" to-port="1"/>
		<edge from-layer="2525" from-port="2" to-layer="2527" to-port="0"/>
		<edge from-layer="2526" from-port="0" to-layer="2527" to-port="1"/>
		<edge from-layer="2527" from-port="2" to-layer="2531" to-port="1"/>
		<edge from-layer="2528" from-port="0" to-layer="2531" to-port="2"/>
		<edge from-layer="2529" from-port="0" to-layer="2531" to-port="3"/>
		<edge from-layer="2530" from-port="0" to-layer="2531" to-port="4"/>
		<edge from-layer="2531" from-port="5" to-layer="2534" to-port="0"/>
		<edge from-layer="2532" from-port="0" to-layer="2534" to-port="1"/>
		<edge from-layer="2533" from-port="0" to-layer="2534" to-port="2"/>
		<edge from-layer="2534" from-port="3" to-layer="2536" to-port="0"/>
		<edge from-layer="2535" from-port="0" to-layer="2536" to-port="1"/>
		<edge from-layer="2536" from-port="2" to-layer="2555" to-port="0"/>
		<edge from-layer="2536" from-port="2" to-layer="2540" to-port="0"/>
		<edge from-layer="2536" from-port="2" to-layer="2543" to-port="0"/>
		<edge from-layer="2536" from-port="2" to-layer="2537" to-port="0"/>
		<edge from-layer="2537" from-port="1" to-layer="2539" to-port="1"/>
		<edge from-layer="2538" from-port="0" to-layer="2539" to-port="2"/>
		<edge from-layer="2539" from-port="3" to-layer="2554" to-port="0"/>
		<edge from-layer="2540" from-port="1" to-layer="2542" to-port="1"/>
		<edge from-layer="2541" from-port="0" to-layer="2542" to-port="2"/>
		<edge from-layer="2542" from-port="3" to-layer="2548" to-port="0"/>
		<edge from-layer="2543" from-port="1" to-layer="2545" to-port="1"/>
		<edge from-layer="2544" from-port="0" to-layer="2545" to-port="2"/>
		<edge from-layer="2545" from-port="3" to-layer="2547" to-port="0"/>
		<edge from-layer="2546" from-port="0" to-layer="2547" to-port="1"/>
		<edge from-layer="2547" from-port="2" to-layer="2548" to-port="1"/>
		<edge from-layer="2548" from-port="2" to-layer="2551" to-port="0"/>
		<edge from-layer="2549" from-port="0" to-layer="2551" to-port="1"/>
		<edge from-layer="2550" from-port="0" to-layer="2551" to-port="2"/>
		<edge from-layer="2551" from-port="3" to-layer="2553" to-port="0"/>
		<edge from-layer="2552" from-port="0" to-layer="2553" to-port="1"/>
		<edge from-layer="2553" from-port="2" to-layer="2554" to-port="1"/>
		<edge from-layer="2554" from-port="2" to-layer="2561" to-port="0"/>
		<edge from-layer="2555" from-port="1" to-layer="2557" to-port="1"/>
		<edge from-layer="2556" from-port="0" to-layer="2557" to-port="2"/>
		<edge from-layer="2557" from-port="3" to-layer="2558" to-port="0"/>
		<edge from-layer="2558" from-port="1" to-layer="2560" to-port="0"/>
		<edge from-layer="2559" from-port="0" to-layer="2560" to-port="1"/>
		<edge from-layer="2560" from-port="2" to-layer="2561" to-port="1"/>
		<edge from-layer="2561" from-port="2" to-layer="2564" to-port="0"/>
		<edge from-layer="2561" from-port="2" to-layer="2572" to-port="0"/>
		<edge from-layer="2562" from-port="0" to-layer="2564" to-port="1"/>
		<edge from-layer="2563" from-port="0" to-layer="2564" to-port="2"/>
		<edge from-layer="2564" from-port="3" to-layer="2565" to-port="0"/>
		<edge from-layer="2565" from-port="1" to-layer="2567" to-port="0"/>
		<edge from-layer="2566" from-port="0" to-layer="2567" to-port="1"/>
		<edge from-layer="2567" from-port="2" to-layer="2568" to-port="0"/>
		<edge from-layer="2569" from-port="0" to-layer="2572" to-port="1"/>
		<edge from-layer="2570" from-port="0" to-layer="2572" to-port="2"/>
		<edge from-layer="2571" from-port="0" to-layer="2572" to-port="3"/>
		<edge from-layer="2572" from-port="4" to-layer="2573" to-port="0"/>
	</edges>
	<meta_data>
		<MO_version value="2022.1.0-6910-173f328c53d"/>
		<Runtime_version value="2022.1.0-6910-173f328c53d"/>
		<legacy_path value="False"/>
		<cli_parameters>
			<caffe_parser_path value="DIR"/>
			<compress_fp16 value="False"/>
			<data_type value="FP32"/>
			<disable_nhwc_to_nchw value="False"/>
			<disable_omitting_optional value="False"/>
			<disable_resnet_optimization value="False"/>
			<disable_weights_compression value="False"/>
			<enable_concat_optimization value="False"/>
			<enable_flattening_nested_params value="False"/>
			<enable_ssd_gluoncv value="False"/>
			<extensions value="DIR"/>
			<framework value="onnx"/>
			<freeze_placeholder_with_value value="{}"/>
			<generate_deprecated_IR_V7 value="False"/>
			<input value="image"/>
			<input_model value="DIR/model.onnx"/>
			<input_model_is_text value="False"/>
			<input_shape value="[1,3,720,1280]"/>
			<k value="DIR/CustomLayersMapping.xml"/>
			<keep_shape_ops value="True"/>
			<layout value="image(nchw)"/>
			<layout_values value="{'image': {'source_layout': 'nchw', 'target_layout': None, 'is_input': True}}"/>
			<legacy_ir_generation value="False"/>
			<legacy_mxnet_model value="False"/>
			<log_level value="ERROR"/>
			<mean_scale_values value="{'image': {'mean': None, 'scale': array([255.])}}"/>
			<mean_values value="()"/>
			<model_name value="person-detection-0303"/>
			<output value="['boxes', 'labels']"/>
			<output_dir value="DIR"/>
			<placeholder_data_types value="{}"/>
			<placeholder_shapes value="{'image': (1, 3, 720, 1280)}"/>
			<progress value="False"/>
			<remove_memory value="False"/>
			<remove_output_softmax value="False"/>
			<reverse_input_channels value="True"/>
			<save_params_from_nd value="False"/>
			<scale_values value="image[255.0]"/>
			<silent value="False"/>
			<source_layout value="()"/>
			<static_shape value="False"/>
			<stream_output value="False"/>
			<target_layout value="()"/>
			<transform value=""/>
			<use_legacy_frontend value="False"/>
			<use_new_frontend value="False"/>
			<unset unset_cli_parameters="batch, counts, disable_fusing, disable_gfusing, finegrain_fusing, input_checkpoint, input_meta_graph, input_proto, input_symbol, mean_file, mean_file_offsets, move_to_preprocess, nd_prefix_name, pretrained_model_name, saved_model_dir, saved_model_tags, scale, tensorboard_logdir, tensorflow_custom_layer_libraries, tensorflow_custom_operations_config_update, tensorflow_object_detection_api_pipeline_config, tensorflow_use_custom_operations_config, transformations_config"/>
		</cli_parameters>
	</meta_data>
</net>
